RNN/model_storage/ch7/model2_conditioned_surname_generation/model.pth (torch, 53160 bytes, 8 tensors)

char_emb.weight f4 [88, 32]
000000 00 00 00 00 00 00 00 00 00 00 00 00 00 00 00 00
       0.0 0.0 0.0 0.0
000010 00 00 00 00 00 00 00 00 00 00 00 00 00 00 00 00
       0.0 0.0 0.0 0.0
000020 00 00 00 00 00 00 00 00 00 00 00 00 00 00 00 00
       0.0 0.0 0.0 0.0
000030 00 00 00 00 00 00 00 00 00 00 00 00 00 00 00 00
       0.0 0.0 0.0 0.0
000040 00 00 00 00 00 00 00 00 00 00 00 00 00 00 00 00
       0.0 0.0 0.0 0.0
000050 00 00 00 00 00 00 00 00 00 00 00 00 00 00 00 00
       0.0 0.0 0.0 0.0
000060 00 00 00 00 00 00 00 00 00 00 00 00 00 00 00 00
       0.0 0.0 0.0 0.0
000070 00 00 00 00 00 00 00 00 00 00 00 00 00 00 00 00
       0.0 0.0 0.0 0.0
000080 a7 c0 29 bf 26 a7 80 be 6d 4c 81 3f 81 ed f8 3d
       -0.6630959 -0.25127524 1.0101448 0.12154675
000090 70 33 22 3e 87 27 91 3f eb b2 93 bf 78 c7 98 be
       0.15839934 1.1340188 -1.1538976 -0.29839683
0000a0 ea ed 01 bf 19 86 6c bf ee f4 0b 3f df 54 bf bf
       -0.50753653 -0.92392117 0.5467061 -1.4947776
0000b0 dd 54 9a bf c9 62 12 3f 39 ec 18 bf bb 94 31 bf
       -1.2057148 0.57181984 -0.5973545 -0.6936757
0000c0 03 a1 d2 3f f5 90 4d bf 08 fb ac 3f 4d 45 8d be
       1.6455387 -0.8029931 1.3514109 -0.27591935
0000d0 07 63 c1 bf 9a b4 06 40 52 d4 30 40 45 8e df bf
       -1.5108346 2.104773 2.762959 -1.7465292
0000e0 b5 cd b9 3f f5 50 c1 bf 22 37 52 3f 99 9a 58 be
       1.4515902 -1.5102831 0.82115376 -0.21152724
0000f0 e1 65 47 3f 27 42 c4 3f d8 0b ce 3f eb 73 ce be
       0.7788983 1.5332688 1.6097364 -0.40322813
000100 23 b2 80 bf bb 63 2f 3f e9 92 28 3d a3 fc 33 be
       -1.0054363 0.6851155 0.04115573 -0.17576842
000110 4b 41 33 bf 73 02 15 3f a9 9a ad bd ff e8 b9 bf
       -0.70021504 0.5820686 -0.08476765 -1.452423
000120 05 d2 15 40 da 47 16 bf 79 20 2e 3d 84 93 6c 3f
       2.3409436 -0.58703387 0.042511437 0.9241259
000130 71 8a bc bf ec d8 9d 3f dd 75 22 3e c6 13 e8 3e
       -1.4729749 1.2331824 0.15865274 0.45327586
000140 bd 27 2d 40 3e 20 b2 bf 20 a9 a7 3f a2 46 2e 3f
       2.7055504 -1.391609 1.3098488 0.6807653
000150 59 77 ed bf 33 a9 b8 bf 51 21 5b 3f 37 39 8c bd
       -1.8552047 -1.4426636 0.8559771 -0.0684685
000160 5a 0f fd 3e 04 e5 14 bf 96 14 32 3f e1 c5 32 bf
       0.49425775 -0.5816195 0.6956266 -0.6983319
000170 4f cd ab be fd 8b 06 bf 1a dd ad bf 09 7f 36 bf
       -0.33555076 -0.52557355 -1.35831 -0.7128759
000180 31 5e d5 bf 08 bd ae bf 26 7f 29 be 1e 56 76 3f
       -1.666937 -1.3651438 -0.1655241 0.96225154
000190 69 39 01 3d 43 ed 3d bf e0 77 98 be 03 9f 8c 3c
       0.03154889 -0.7419016 -0.29778957 0.017165666
0001a0 2f 7a 35 be bf a1 08 be 94 81 96 3e 2d 46 b1 3f
       -0.1772239 -0.13342951 0.29395735 1.3849541
0001b0 1c a1 f7 3d a4 ac 22 40 30 f5 23 bf 60 ac fc bf
       0.12091276 2.5417871 -0.64046 -1.9740105
0001c0 4d bd a8 be d7 65 02 3c b9 1d 6d 3f 1e 39 f1 bf
       -0.32956925 0.007958851 0.9262348 -1.8845556
0001d0 fb f7 2a 3e 8c d0 ea 3e 0e 13 e2 bf 31 03 16 3f
       0.1669616 0.45862234 -1.7662065 0.5859862
0001e0 cd 21 e0 3f d0 ba 8f 3e 90 36 9f 3e b0 5c 27 bf
       1.7510315 0.28072214 0.31096315 -0.65375805
0001f0 33 5a 28 bf ce 0b a3 3e b3 b1 0c bf a5 82 bb bf
       -0.65762633 0.31844944 -0.5495865 -1.4649245
000200 91 a7 19 c0 4c de 1d 40 0d 71 9e 3f ea c5 ce be
       -2.4008524 2.466693 1.237825 -0.4038537
000210 53 21 61 3f 56 7f a2 3f fb 34 b4 be 20 b1 88 bf
       0.87941474 1.269511 -0.3519667 -1.0679054
000220 5f 48 4b 3e 32 e2 3e 3d df b0 0a 3f ad 8c 1c 3f
       0.19851826 0.046602435 0.54176134 0.61152154
000230 09 58 38 3e 69 a4 63 bf fa 6b aa 3e 8e 30 50 3f
       0.18002333 -0.88922745 0.33285505 0.8132409
000240 b3 d2 12 40 ff 20 a7 3f 49 74 c9 bf cc 7f e7 be
       2.29411 1.3056945 -1.5738612 -0.4521469
000250 26 a5 d1 be 1c 31 28 bf c7 b6 6c bf 8f d4 7d 3f
       -0.4094631 -0.65699935 -0.92466396 0.99152464
000260 30 c4 83 bf 6b a0 27 3f fb c7 82 3f dd 27 7b be
       -1.0294247 0.65479153 1.0217279 -0.24526925
000270 51 fa a8 bf 3a ba 9c be 0a ed aa 3f 6f 6d 61 be
       -1.320139 -0.3061083 1.3353589 -0.22014402
000280 2f fb 9d bf 5d 4a 9d 3e 1e 0d fe bd c6 31 0e 40
       -1.234228 0.30720797 -0.12404846 2.221788
000290 c2 1b 4b c0 ca d7 d4 3d 23 4d 6e bf ea 91 0e bf
       -3.1735692 0.10392721 -0.9308645 -0.556914
0002a0 1b ec 87 3e cc fa 0c 40 2c 39 18 bf d8 bd 57 be
       0.26547322 2.2028074 -0.5946224 -0.21068513
0002b0 ea 2c a2 bf 38 79 96 be 89 bd ff bf 07 6b be bf
       -1.2669957 -0.29389358 -1.9979717 -1.4876412
0002c0 82 65 04 bf 38 3e 7f bf 71 0c 0e 3e 31 99 88 3e
       -0.5171739 -0.99704313 0.13871934 0.26679376
0002d0 be 11 d6 3e 98 67 15 3f fa fa ed bf 19 99 76 3f
       0.4181041 0.58361197 -1.8592217 0.9632736
0002e0 40 1e 9c 3f db 7c 9b 3f 84 30 18 3f cf d1 b5 bf
       1.2196732 1.2147478 0.5944903 -1.4204654
0002f0 08 ad 1b bf 84 25 16 40 d4 db f2 3e a7 97 c5 3f
       -0.608109 2.3460398 0.4743334 1.5436906
000300 2a 26 7e 3e 04 0d fc be b2 83 fa 3f 7b ab c4 3f
       0.24819246 -0.4922868 1.957144 1.5364832
000310 bb 79 69 3f 7d d2 fb be 1d 0c d1 be 10 c2 4a 3f
       0.9120137 -0.49184027 -0.40829554 0.79202366
000320 bb 83 21 3e 66 0d ee bf 0c 78 98 3f a0 0d a7 3e
       0.15772907 -1.8597839 1.1911635 0.32627583
000330 fd 63 a3 bf 2e 00 83 bf be 01 9d be f8 da 84 3e
       -1.2764889 -1.023443 -0.30665392 0.2594831
000340 75 ba ab 3e e2 e0 ff be 05 18 cc be d2 da 19 bf
       0.33540693 -0.4997626 -0.39862075 -0.6009952
000350 61 10 73 3f c4 87 7a 3f 4a a4 a9 3f d5 4c 25 3f
       0.9494687 0.9786341 1.3253262 0.6457036
000360 a3 d2 eb 3d 22 11 86 3f 78 c8 dc be 9b 37 12 bf
       0.11514785 1.0473979 -0.43121696 -0.571161
000370 0e e0 b1 be 12 63 04 3e b4 b7 08 bf 87 db 60 be
       -0.34741253 0.12928417 -0.5340531 -0.21958743
000380 f7 88 47 bf b0 f6 47 bd 32 4a fc bd 9b de d8 be
       -0.77943367 -0.048819244 -0.12318839 -0.42357334
000390 67 46 a8 be f8 36 e6 3e 20 6e 97 bd 4d fe 2c bf
       -0.32866213 0.44963813 -0.073940516 -0.6757553
0003a0 d1 74 73 3f 52 a2 d5 bf 14 e8 30 3f 57 ce 0e c0
       0.9510012 -1.6690161 0.69104123 -2.231344
0003b0 17 73 90 bf 7d 1f 1d be 6f 5d 17 bf f1 d4 1e bf
       -1.1285123 -0.15344043 -0.59126943 -0.6204367
0003c0 5b 4c ad 3f c0 3b e9 bd 26 71 46 bf 97 90 81 bf
       1.3538927 -0.113883495 -0.775164 -1.012225
0003d0 bb c7 4c 3e 3e 0a f8 be 5f d3 19 be e9 43 9a bf
       0.19998066 -0.48445314 -0.15022038 -1.2051975
0003e0 1f 4b 12 bf ad b9 ac 3e d7 b1 8d bf ac 0c a5 bf
       -0.57145876 0.3373541 -1.1069897 -1.2894492
0003f0 b3 58 94 3f 8d 4e d4 bf b2 42 00 bf 3f f0 b0 3f
       1.1589569 -1.6586472 -0.5010177 1.3823317

nation_emb.weight f4 [18, 32]
000000 75 42 50 bf 16 88 3f bf b9 cf 80 be fa d5 32 3f
       -0.81351405 -0.74817026 -0.2515848 0.6985775
000010 14 ae d5 bf 4d ba ca 3e dd 64 ad 3f 50 d0 2b bf
       -1.669375 0.3959526 1.3546406 -0.67114735
000020 46 fd a3 3f da 75 ee 3e df 5c 7a 3f a3 01 72 be
       1.2811668 0.4657429 0.9779796 -0.23633437
000030 e2 59 8d 3d ca 85 3b bf 1b c7 83 bd 5a 86 1a bf
       0.069019094 -0.7325102 -0.06434461 -0.60361254
000040 09 93 d3 3f 48 28 23 40 4d 62 f4 3f c9 63 61 be
       1.6529247 2.5493336 1.9092499 -0.22010721
000050 7a 31 e7 3e 55 ca 29 3f 89 89 fe bf 0b 40 7c bf
       0.45154935 0.6632436 -1.9885722 -0.9853522
000060 ab 3c 15 40 2b eb 52 40 dc 5e 20 bf a9 d4 97 bf
       2.3318279 3.2956035 -0.62644744 -1.1861774
000070 09 a5 2b c0 92 6a 6e 3f 6b 92 b1 bd 03 d7 0b 3f
       -2.681948 0.93131363 -0.08670505 0.54624957
000080 34 0d 5f bf 19 65 16 40 f5 ab ad bf a8 d6 ae 3e
       -0.8712952 2.3499205 -1.3568102 0.34148145
000090 05 dd 42 3f 51 b2 bf 3f d6 24 71 bf 11 5a 38 40
       0.761185 1.4976293 -0.9419683 2.8804972
0000a0 94 2f 05 bf 6f 3c 62 bf e4 93 9c bf 8b fb 7e bf
       -0.52025723 -0.88373464 -1.2232633 -0.99602574
0000b0 34 28 97 3f e6 75 cd 3f 82 d0 bf be 6a 2e 81 3e
       1.1809144 1.6051605 -0.37463766 0.25230724
0000c0 3e f5 91 3f 42 d4 f2 3f 26 3e 2a bf 33 20 56 bd
       1.1402967 1.8971026 -0.6650108 -0.0522768
0000d0 b0 8c 14 3f a7 cb cd 3e e0 f9 a6 3f 0a 08 93 bf
       0.5802717 0.40194437 1.3045006 -1.1486828
0000e0 49 fd 14 40 08 e6 3a 3e 5a 88 be 3f 7e ae 17 3e
       2.3279593 0.18251812 1.4885361 0.14812657
0000f0 85 a1 e7 bf 72 72 6a bf c9 24 12 40 bc 0f 42 3f
       -1.8096167 -0.9158088 2.2834952 0.7580526
000100 98 10 6b bf 5a 74 c3 3f ce 67 d6 bf d9 17 06 c0
       -0.91822195 1.5269883 -1.6750429 -2.0952055
000110 80 5d 43 bf 09 e5 65 3f 52 43 1a 40 40 71 fb 3e
       -0.76314545 0.89802605 2.410359 0.4910984
000120 50 01 bf bf e2 26 e3 be 33 e0 d6 3f 0a 5d cd 3f
       -1.4922276 -0.44365603 1.678717 1.6044018
000130 cc 16 82 be 6c 02 d0 3e 15 73 5c be 37 34 15 bf
       -0.25408018 0.40626848 -0.21528275 -0.582828
000140 dd f5 b3 3f 34 e4 38 3f 0d be 99 3f a1 d1 96 3f
       1.4059407 0.7222321 1.2011124 1.1782724
000150 6f 9e e8 bf 06 22 ca bf 61 3b 2d bf 8f c9 60 be
       -1.817335 -1.5791633 -0.6766873 -0.21951889
000160 3e fd 72 3f e7 ec 7d bf cf 51 af bf 83 4b 89 3f
       0.94917667 -0.9918961 -1.3696841 1.0726169
000170 ee bc a7 bd 4e e1 55 3f 61 16 e6 3f b2 fe 29 3e
       -0.08190332 0.8354691 1.797558 0.16601065
000180 e0 31 e3 bf 6c 68 76 be dc 92 4a 3d e1 28 e0 3f
       -1.7749596 -0.24063271 0.049456462 1.7512475
000190 1b 80 fb 3d b4 a1 d8 bc 36 4e db 3e df 6d 62 3f
       0.122802936 -0.026444294 0.42833108 0.884489
0001a0 97 23 7c be 87 03 6d bf e0 8b 08 40 d9 3c da 3f
       -0.24622951 -0.9258351 2.1335373 1.7049819
0001b0 2b 47 b5 3f af 9f 63 3f ba 54 af 3e 7a 6e bb be
       1.4162344 0.8891553 0.3424433 -0.36607724
0001c0 62 c2 10 bf 13 e0 fc be af fb c7 be 5b bf 43 bf
       -0.56546605 -0.49389705 -0.39059207 -0.7646386
0001d0 e3 ae 57 be 69 14 cb bf 5a 44 0c c0 2c 84 28 3f
       -0.21062808 -1.5865604 -2.1916718 0.6582668
0001e0 32 e1 23 bf 48 15 3b 3c d5 f1 55 bf 40 b6 50 3e
       -0.64015496 0.011418648 -0.8357213 0.20382023
0001f0 08 40 42 40 c4 1d 11 bf bc c0 6f 3e 98 7e b0 3f
       3.0351582 -0.56686044 0.23413366 1.3788633
000200 26 01 52 3f 0f 20 8a 3f 30 f4 6f 3f 0f df 27 3f
       0.82033 1.0791034 0.93731976 0.65574735
000210 53 6a 9d 3f ff 05 08 3f 27 4e a2 be 31 6d 11 c0
       1.2298073 0.5313415 -0.3170025 -2.2722895
000220 27 41 d3 3f 7e a9 9e bf 15 fb a1 3f 6b b1 0f 40
       1.6504258 -1.2395475 1.2654749 2.2452037
000230 dd 18 b5 3e 4a b1 2a be e9 15 93 3f 1b 20 6f 3e
       0.35370532 -0.16669193 1.1491061 0.23352091
000240 53 96 8b 3e c3 37 22 40 97 eb a9 3f 21 a3 9a 3f
       0.27263126 2.5346534 1.3275021 1.2081033
000250 60 21 ea bd 00 51 38 3f 4a 29 72 be fb d0 a3 3f
       -0.11432147 0.71998596 -0.23648563 1.2798151
000260 24 6f 29 bf f8 da 8e 3f e9 ec 95 bd 0c 5c 67 bf
       -0.6618521 1.1160574 -0.07320578 -0.9037483
000270 46 c9 87 3f cc 76 5e 3f 91 c0 21 3f 4d 68 b8 3e
       1.0608299 0.8690002 0.6318446 0.36017075
000280 b7 b4 b6 3f 4d 97 2f 3f 2e 15 b4 be 25 19 5b bf
       1.42739 0.6859024 -0.3517241 -0.8558524
000290 48 2e e1 3f 49 1a 44 bf dc 9e 18 bf 7c 7d 37 c0
       1.7592249 -0.7660261 -0.596174 -2.867034
0002a0 80 6d ea be 84 79 b7 bc f9 49 fc 3e ac 3f 74 3d
       -0.45786667 -0.02239681 0.49275187 0.059631035
0002b0 2f d6 8d bf 4c 78 4d 3f 7c d2 98 3f 26 8f 98 3e
       -1.1080989 0.80261683 1.1939235 0.29796714
0002c0 5a 52 4d c0 21 5f 08 40 b1 c5 94 be e1 6e 95 be
       -3.2081513 2.1308062 -0.29057077 -0.29186156
0002d0 42 22 03 be c3 bd 69 bf 6d bb 35 be 73 68 98 bf
       -0.12806037 -0.9130518 -0.17747279 -1.1906875
0002e0 7a ac a5 be ff f6 da 3e 50 95 00 bf e5 5d fd 3d
       -0.32358152 0.42766568 -0.5022783 0.123714246
0002f0 3f d2 b4 bf 2a e5 65 bf 40 ca 9f bf 27 6b a8 3f
       -1.4126662 -0.898028 -1.2483597 1.31577
000300 54 94 45 3f 98 dc 84 bf 79 30 c3 bf 4f 6f ba bf
       0.77179456 -1.037982 -1.5249168 -1.4565219
000310 d5 d7 c3 3d 9f 88 47 3d 5e 53 8a bf fd a1 ab bd
       0.09562651 0.048714276 -1.0806692 -0.08380506
000320 ab 9d df be f5 cb f1 3f c8 f6 ee 3e f6 30 40 c0
       -0.4367498 1.8890368 0.46672654 -3.0029883
000330 df 30 12 3f df 21 a1 3f 35 ae 31 be 93 7f 06 c0
       0.5710582 1.2588462 -0.17351611 -2.1015365
000340 ab ad e9 3e 9b da 81 be 23 6d f5 3e fa 02 b1 be
       0.4564031 -0.25362095 0.47934827 -0.34572583
000350 00 8b a8 3f 5b fb 25 3f 32 b1 7c bf 14 54 27 3f
       1.316742 0.64836663 -0.9870788 0.6536267
000360 ae 24 86 bf 13 bf 12 be 20 31 31 bf a6 85 3b bf
       -1.0479944 -0.14330702 -0.69215584 -0.73250806
000370 4e 04 9e 3f c3 d1 da 3f ab 59 13 3f 86 9b 66 3f
       1.2345064 1.7095264 0.575587 0.9008106
000380 20 ec c2 3f 96 a5 5f bf 0e 01 be bf 9f ba 91 3d
       1.522831 -0.8736204 -1.4844072 0.07115673
000390 3e e5 1c bf c3 d9 30 3f db 52 64 3f a7 fe 2a 40
       -0.61287296 0.6908228 0.8918893 2.6717927
0003a0 4f 1d bb bf 53 e7 aa 3f 1a 10 85 bf 80 a9 8a bf
       -1.4618319 1.3351845 -1.0395539 -1.0832977
0003b0 af f7 25 bf 0d 9f af bf 45 c1 5c 3f fa c9 9f 3f
       -0.6483106 -1.3720413 0.86232406 1.2483513
0003c0 b3 4d fb 3d 0c e8 21 bf e9 ae 90 bf c7 2c 21 bf
       0.12270679 -0.632447 -1.1303378 -0.6295895
0003d0 0f e3 7e be 0d af 19 3f 63 26 d1 3f 2e d6 fd 3f
       -0.24891303 0.6003273 1.633984 1.9830987
0003e0 79 a8 87 3f 1c 8a 7d 3e 97 bf 8e bf ba 1e c7 3f
       1.0598289 0.24759716 -1.1152219 1.5556252
0003f0 b2 fe 83 3f db f7 81 3f 45 68 53 3f 4d 3a 21 3e
       1.0312102 1.0153764 0.8258098 0.15744896

rnn.weight_ih_l0 f4 [96, 32]
000000 fd b9 39 be e2 86 00 be 22 a3 3c 3e 99 74 a8 3e
       -0.18137355 -0.12551454 0.18421605 0.32901457
000010 ca 47 b3 3d 53 54 15 be da 1c 81 be 8e 5d 9d 3d
       0.08753927 -0.14582948 -0.25217324 0.0768386
000020 39 63 0a 3e aa 0e 13 be 7e 8b a9 3d e2 87 13 bd
       0.13514413 -0.14361063 0.08278559 -0.03601826
000030 9a 0b 0f be cc c7 15 bf 8a 1a 72 bd d7 27 ef bd
       -0.1396927 -0.5850799 -0.05910734 -0.11677521
000040 49 8e eb bd b6 f4 e6 3d 36 6b 3e be 01 92 26 bd
       -0.11501748 0.11277144 -0.18595585 -0.040666584
000050 a0 87 aa bd c6 0d 4a 3e 7e 33 1c be 06 16 89 be
       -0.0832665 0.19731817 -0.15254018 -0.26774615
000060 03 f6 28 3e 2c 09 aa bd b9 a4 1f be 77 2d 23 be
       0.16500096 -0.08302531 -0.1559018 -0.15935312
000070 a3 42 82 be 22 32 9c 3d 82 9f 74 3e 64 74 8a 3d
       -0.25441465 0.076267496 0.23888972 0.06760481
000080 ed fb a8 3d 70 82 b8 3e ab 50 41 3e d0 93 31 3e
       0.08251176 0.36037016 0.18878429 0.17341542
000090 61 31 af bd cf 4f 9d bb 52 9f 3b 3d 59 51 7c 3e
       -0.0855434 -0.0048007737 0.045806237 0.24640407
0000a0 56 65 0a 3d 0b 1b ae bd b5 30 ce 3c a8 b6 9b 3c
       0.033788048 -0.08501252 0.02516971 0.019007996
0000b0 11 4f 27 3e a6 7e a2 bd f5 3d 20 be 3c ed aa be
       0.16338755 -0.079343125 -0.15648635 -0.3338412
0000c0 a4 c3 5e be 75 8e 48 be 59 ba fa 3d 49 f7 1f be
       -0.21754318 -0.19585593 0.12242574 -0.15621676
0000d0 d3 a5 cc bd db 80 51 3e ce c1 7c 3d db 90 19 3e
       -0.09992566 0.2045931 0.061708264 0.14996664
0000e0 a9 7d 15 3e 06 21 1e 3d 4e 41 d9 be 82 56 a1 be
       0.14598717 0.038605712 -0.42432636 -0.31511313
0000f0 c5 9f ae be 87 9d 82 bc f9 19 36 3e 79 da 8a 3e
       -0.3410627 -0.015944256 0.17783345 0.27119806
000100 60 2c 82 bc c9 eb 1d be 1a d2 b3 3d c8 16 a9 3e
       -0.0158903 -0.15421976 0.08780308 0.33025193
000110 44 9e 41 3e f8 71 49 3e 92 fc 7b be 28 0e c8 3b
       0.1890803 0.19672382 -0.24608067 0.006105203
000120 23 5f a6 bd 45 9d 45 ba 19 20 c0 3e 59 22 2d 3e
       -0.08123615 -0.00075383886 0.3752449 0.16907634
000130 5f e9 51 bc c6 20 f7 bd 5c af f5 3d 19 83 9d bd
       -0.012811988 -0.12066798 0.11996338 -0.076910205
000140 48 2c 6d 3d a1 5c 15 3e f6 98 24 3c 47 46 b3 3d
       0.057903558 0.14586116 0.010046234 0.08753639
000150 28 57 30 3e 01 4c b2 3e 68 49 6e bd c8 a0 be 3e
       0.17220747 0.3482361 -0.058175474 0.3723204
000160 ad 2b 1d bd 0d fd 76 bd 98 ff 8e 3e 6a 15 64 be
       -0.03837173 -0.06029992 0.27929378 -0.22273794
000170 af e9 98 be 8c 4f d2 3d 8c 56 68 3e 53 4a 19 3e
       -0.29865786 0.102690786 0.22689265 0.14969759
000180 be 88 63 3e 86 9e 45 3d c6 32 3b 3d 64 6e b6 3b
       0.22220132 0.048246883 0.04570272 0.005567359
000190 e8 bc 9b 3e 8b 10 9b 3d 51 c2 47 3d 54 fe 27 3e
       0.30417562 0.07571515 0.0487693 0.16405612
0001a0 bb 9a c0 bc 7f 45 00 be 75 6e 2d bc b5 1b 30 bd
       -0.023511281 -0.1252651 -0.010585417 -0.042995173
0001b0 39 62 28 bd 9b d7 35 3d c5 c7 04 be e8 d2 2e be
       -0.041109297 0.04439507 -0.12966831 -0.17072642
0001c0 1f ad 39 be 6e 19 bb 3e 18 da 25 3d 38 02 ab be
       -0.18132447 0.3654284 0.040491194 -0.3340013
0001d0 6c dc 43 3e a6 50 0b bd db 77 72 bd 03 ee b4 3d
       0.19127053 -0.03401246 -0.059196334 0.0883446
0001e0 58 49 26 3c fc 1a 88 bc d1 ca 35 3d 00 61 6b be
       0.010149322 -0.01661443 0.044382874 -0.22986221
0001f0 66 f5 3f be f9 93 9d bd b5 00 8c bc 09 b0 eb bc
       -0.18745956 -0.07694239 -0.01709018 -0.028770464
000200 34 52 3e be d8 ac 52 be fd 46 17 3d fa 60 c2 3c
       -0.18586046 -0.20573747 0.036932934 0.023727883
000210 da b8 70 3c c6 25 16 3b 3e 5f ad 3d 83 f0 79 bd
       0.01469251 0.0022910698 0.08465432 -0.061020385
000220 13 79 c7 3e ed 5b ab bd 87 5e 07 be 4a 80 da be
       0.3895956 -0.08367143 -0.13219653 -0.42676002
000230 82 50 b0 be aa f4 88 3d 93 93 37 3e 4e 27 2d be
       -0.34436423 0.06687291 0.17927389 -0.16909525
000240 7b e9 db 3d ba c1 21 be ae 77 65 bd 82 80 24 3e
       0.10737892 -0.15796557 -0.05602234 0.16064647
000250 5e 32 8c be c9 45 9b be b1 ff 11 be 32 47 64 be
       -0.27382177 -0.3032668 -0.14257695 -0.22292784
000260 48 d7 4e 3d e9 b9 3e 3d 8a 94 70 be ce ea 47 be
       0.050498277 0.046564016 -0.23494163 -0.19523165
000270 c1 a5 86 be 5a 49 1e bd fc 05 0b bd 6e 0d e5 3d
       -0.26298335 -0.038644172 -0.033941254 0.11184202
000280 ab a7 f7 bc 4f dd b7 3d 5c f6 10 3e 75 df 26 3e
       -0.030231318 0.08977758 0.14156479 0.1629618
000290 1a 9d 4b 3e 77 ef 75 3d 87 e3 51 be 29 cd 5a 3e
       0.19884148 0.060042825 -0.20496951 0.21367325
0002a0 d8 5c e8 3c 55 02 fa bd 7b 89 06 3e 3a 2c 26 3d
       0.028364584 -0.12207476 0.13138382 0.04056952
0002b0 1f b0 03 bd d7 f0 87 be 2a 70 4c be 07 4c 92 3d
       -0.032150384 -0.26550934 -0.19964662 0.07143407
0002c0 c8 aa 52 be 24 12 97 3d c5 f8 98 be 7f 1c db 3b
       -0.2057296 0.07376507 -0.29877296 0.0066867466
0002d0 8d 2e 0c 3e ec e4 43 3e c8 e8 09 3c 9e 95 12 3e
       0.13689633 0.19130296 0.008417316 0.14314887
0002e0 59 1c 7d bd 85 8e d2 3d ce 42 12 be cf a4 6c bc
       -0.061794613 0.1028109 -0.14283296 -0.01444359
0002f0 b2 b4 b6 bc 36 38 04 3d c0 ea aa 3d e8 55 84 3e
       -0.02230296 0.03228017 0.08345556 0.2584679
000300 d5 18 b7 3e a2 89 dd 3d 68 71 f0 bd 61 38 dd 3d
       0.35761133 0.10817267 -0.117403805 0.10801769
000310 6b 35 26 3e 63 04 e1 3d 30 82 ac bd fb 40 51 3e
       0.16231315 0.10987165 -0.08423269 0.20434944
000320 08 e5 48 be b3 3b cd bc 54 68 2d 3d 3a fa a0 be
       -0.19618618 -0.02505288 0.042335823 -0.31440908
000330 c4 13 98 bd 25 d1 d0 bd 30 87 03 be 55 75 ba 3c
       -0.07425645 -0.10196141 -0.12844539 0.022761026
000340 a2 4b 52 be a4 0c 01 3d 83 50 79 be 41 dc c2 be
       -0.20536664 0.031506196 -0.24347119 -0.38058665
000350 50 49 be 3d 20 63 0b 3e 50 b0 8d be 3c cf 2d be
       0.09291327 0.13612032 -0.27673578 -0.16973585
000360 38 f0 5c be 05 5f f7 3c b4 67 90 3d 27 d8 2b bd
       -0.21576011 0.030196676 0.0705103 -0.041954186
000370 93 36 4d be 8e 82 0c be c9 ef 01 3e 60 3d 0a bd
       -0.2004035 -0.13721678 0.12689127 -0.033749938
000380 16 b9 10 be 1e 11 5e bd 5d fb 3f 3e 1f d1 35 3e
       -0.14133105 -0.054215543 0.18748231 0.17755555
000390 b5 c5 9f bd c0 34 77 bd e8 6c 84 be 5c 3f 57 3e
       -0.078013815 -0.06035304 -0.2586434 0.21020263
0003a0 f5 5c 13 3d e2 ea 90 3c b4 8d e2 3b 30 9a d8 3d
       0.035977323 0.017690126 0.006913865 0.10576284
0003b0 a4 98 a9 bc a6 f4 55 be e6 78 2f 3b 38 66 9c bb
       -0.020702668 -0.20894107 0.0026774942 -0.0047729276
0003c0 21 bb 1e 3d d8 ca e3 bd ec b2 4a be f2 19 ae bd
       0.03875268 -0.11122674 -0.19794816 -0.085010424
0003d0 c4 62 16 3e 18 c2 6f 3c 8c 57 6c 3d 96 8f b0 3d
       0.14686114 0.014633678 0.05770068 0.08621137
0003e0 d0 0e 19 3d f8 07 1f bd c1 34 22 be f3 98 85 bd
       0.037367642 -0.03882596 -0.15840437 -0.065233134
0003f0 68 7d ae be e6 6f 05 be ab ac b0 3d a5 8b 03 3e
       -0.34080052 -0.13030967 0.08626684 0.12846239

rnn.weight_hh_l0 f4 [96, 32]
000000 67 5c 8d bd ef 3e 35 bd 89 41 d6 3e af 25 00 bf
       -0.0690239 -0.04424947 0.41846874 -0.500575
000010 62 18 32 3f f2 cd 9d 3d 75 9e 4b be 44 b8 4a 3e
       0.69568455 0.077052966 -0.19884665 0.19796854
000020 b0 2c d5 3c f8 4f 02 3f 5f e7 ac 3e d4 c9 93 3e
       0.026022285 0.5090327 0.33770272 0.2886492
000030 43 8f 7d 3e 41 aa 7b be 12 c8 1f be ec cf 11 bf
       0.24761681 -0.24576665 -0.15603665 -0.5695789
000040 17 40 80 bc 8b ce df bd 60 bd 04 be 9a db 3b 3e
       -0.01565556 -0.10928067 -0.12962866 0.1834549
000050 22 29 9b 3d 69 af 70 3e c5 17 8b bd d2 e5 18 3e
       0.07576205 0.23504414 -0.06791643 0.1493142
000060 de db 29 3e 06 58 03 3d 3f 36 45 3e 4c 7e b2 3d
       0.16587779 0.032066368 0.19258974 0.087154955
000070 e2 b7 e4 3c b8 d3 a2 3d a3 7d 23 3e 9d f3 d2 bd
       0.027919713 0.079505384 0.15965895 -0.10300372
000080 ee d9 79 bd 95 a6 07 3e 5a 4e 1a 3e 1d 84 84 3c
       -0.06099885 0.1324714 0.15068951 0.016176278
000090 9a ca 85 3e ec fe 05 be c1 ec 94 be 56 0c 53 3e
       0.26131135 -0.13085526 -0.2908688 0.20610175
0000a0 42 7f 68 3e 91 81 63 3d c8 6e 16 bd c4 bc 1d be
       0.22704795 0.055543486 -0.036726743 -0.1540404
0000b0 85 3c 6b 3e 16 8b af be 60 fe e2 3d a4 50 8b be
       0.22972305 -0.34285802 0.110836744 -0.2720996
0000c0 5d 73 32 3d fd 73 ef bb 69 47 1e be 29 65 85 3c
       0.04356705 -0.007307528 -0.15456928 0.016283588
0000d0 66 9e 8a 3d b1 ba d6 3d 5d bb e9 bd 87 a4 77 3d
       0.06768493 0.10484827 -0.1141269 0.06045964
0000e0 c0 21 e7 bd a4 4d 9d 3e 16 1a 08 3d e4 b9 f9 3d
       -0.11285734 0.30723298 0.033228002 0.12193659
0000f0 e3 29 7a be e6 f8 4e be 37 a3 73 3e 51 e1 02 3e
       -0.24430041 -0.20212135 0.2379273 0.12781264
000100 51 95 83 be 78 1f a7 3e 4c 0b e7 3d 41 02 48 be
       -0.25699857 0.32641196 0.112814516 -0.1953211
000110 b1 d3 c7 bc b0 50 17 bd 78 1f 1a be ae a5 b4 3d
       -0.024392935 -0.036942184 -0.15051067 0.088206634
000120 b6 40 af 3e ae 3f b7 be a9 30 c1 3d ed 19 40 3e
       0.34229058 -0.3579077 0.09433109 0.1875989
000130 d3 60 96 3d 01 09 fc 3c 3b e9 4f bd 25 d0 f4 bc
       0.073426865 0.030766012 -0.050759535 -0.029884407
000140 5b d4 17 bf 4c ba f3 3d bf 93 15 be de 27 f2 3e
       -0.59308404 0.11900768 -0.14607142 0.4729604
000150 5a 0c 8f 3e 1c 66 b1 bd 0c 4f d6 3d 59 b8 74 3d
       0.2793911 -0.08662054 0.10464296 0.05974612
000160 8f 5c b8 be 86 41 c9 bd 4a a2 00 bf 0a 23 26 3f
       -0.36008117 -0.09826951 -0.50247633 0.64897215
000170 14 1e 00 be 45 6f 36 be 95 65 a0 3e 34 6c 60 3d
       -0.12511474 -0.17815883 0.313275 0.05479069
000180 3f 87 ee bd f8 9a 7c 3d 1e 14 81 3e 70 91 6b be
       -0.1164689 0.061671227 0.2521066 -0.23004699
000190 c0 94 75 3e 05 7c 27 be 75 f6 7d 3d 4c da 06 bd
       0.23982525 -0.16355903 0.062002618 -0.032923028
0001a0 a3 0b c3 3d 3b 94 c3 3e d0 8e a0 3e 4f 18 7a 3e
       0.09523704 0.38199028 0.31358957 0.24423335
0001b0 dc 3b 70 3e 2b 94 34 bb 96 61 3b 3e e7 e3 e4 be
       0.23460335 -0.0027554135 0.18298945 -0.44705126
0001c0 f1 dd 65 3e c2 e0 eb bd c7 4a 1b 3e f7 92 20 3f
       0.22447945 -0.115174785 0.15165244 0.6272425
0001d0 be f5 48 3e 86 70 79 3e a7 e5 c9 3e 2b 19 7e 3e
       0.19624993 0.2435933 0.39433023 0.24814288
0001e0 1e ad 59 3d c5 0d 84 3d 82 5f 1d bd bc 8e ef 3e
       0.053143613 0.06447939 -0.03842116 0.46788585
0001f0 e4 e2 8a 3d 80 0b 22 3e f1 e2 6e 3e b3 7f 63 be
       0.06781557 0.158247 0.23328759 -0.22216682
000200 14 55 cc bd e7 55 32 bd 52 01 50 3e bf 0e 89 bd
       -0.09977165 -0.043538954 0.20313004 -0.06692266
000210 86 c4 4d be 9e b2 79 bd a3 d7 4a bd 5f 91 a1 3d
       -0.20094499 -0.06096136 -0.049522053 0.078890555
000220 4e e3 2c bc 24 78 7d 3e 2b 5c 6c bd be ea 98 3e
       -0.010552241 0.24752861 -0.057705086 0.29866594
000230 21 40 51 3c 9a 21 61 be 61 60 ad bd 30 96 09 3f
       0.012771637 -0.21985474 -0.084656484 0.5374479
000240 27 ac e6 3e fc ac 7e 3e 95 a4 08 be 8b 2b 89 be
       0.45053217 0.24870676 -0.13344033 -0.26791033
000250 6d 12 68 3d 62 0e 06 bf 97 25 70 3d 7c 8c b0 bd
       0.056658197 -0.52365696 0.0586296 -0.08620545
000260 d9 d7 fa 3d c8 03 50 3e c8 b2 58 3d f3 3b 88 be
       0.12248201 0.20313942 0.052904874 -0.26608238
000270 98 67 27 3f 72 06 10 be e0 c5 6f 3d e2 34 73 3e
       0.65392447 -0.14064959 0.058538318 0.23750642
000280 6b 28 d5 bd db 43 50 3d 3e e6 b6 3d 4b 0f d3 be
       -0.104081 0.050845962 0.08930634 -0.41222605
000290 a9 19 8e 3e 42 89 3d be 68 12 5a be 0c 09 2b 3e
       0.27753952 -0.18509391 -0.21296084 0.1670267
0002a0 5d fc d5 3e 58 4f 51 3d 75 24 61 3e 06 39 2d bd
       0.417941 0.05110106 0.21986564 -0.04229071
0002b0 06 69 c8 3d 69 aa 5a be 2a 50 c1 be a7 c7 51 be
       0.09785657 -0.21354069 -0.37756473 -0.20486318
0002c0 72 ff c8 3d b5 4f 3b 3c d8 62 e3 be a6 ac 1a 3e
       0.09814347 0.011432578 -0.4441135 0.15104923
0002d0 37 70 fe 3c 92 3c 46 3d 91 d6 4a bd 4c 8f 9c 3e
       0.031059368 0.048397608 -0.049521033 0.30578077
0002e0 9c b6 56 3d d8 c7 2f 3e 44 53 37 be 1f 61 d1 3e
       0.052420244 0.17166078 -0.17902857 0.4089441
0002f0 33 98 00 3e 83 5d a0 bd 46 b9 85 3e c5 c2 a3 3c
       0.1255806 -0.07830336 0.26117915 0.019990334
000300 3c 2b d0 bc 8d 9c b3 3d 21 e9 1b 3e 94 a2 8f be
       -0.02541124 0.08770094 0.1522565 -0.28053725
000310 9d f3 13 3e ce 13 47 be bf 4e 0e bc 31 7d 01 be
       0.144484 -0.19441149 -0.008685767 -0.12645413
000320 0d ad 40 3d 72 63 e7 3e 93 33 d4 bd de 5a 4b 3e
       0.047040034 0.45193058 -0.103613995 0.19858882
000330 ac df 5a 3d 3d c0 b2 bd c3 43 60 3c 7e 64 8c be
       0.053435966 -0.08728073 0.013688031 -0.2742042
000340 c9 bb a2 3e 1d f9 a7 bd 19 a7 b5 be 67 34 4e 3f
       0.31783894 -0.082018115 -0.35479048 0.8054871
000350 0f 76 df 3c 7a f3 53 3e 30 d5 df bd 06 ae 2c 3e
       0.027277974 0.20698348 -0.10929334 0.1686326
000360 ff c8 55 3e bb ee 0c 3e cb b8 13 3b 57 f9 ae 3e
       0.20877455 0.13762943 0.0022540565 0.34174606
000370 ca 0a 02 3e 7b 5f 41 bb af ba 97 bd 1a 83 22 3a
       0.12699428 -0.0029506374 -0.07408654 0.0006199345
000380 b9 e1 3d 3e e1 14 12 3d 3d 54 3f 3e aa 76 69 be
       0.18543138 0.035664443 0.18684478 -0.22799173
000390 98 da c3 bb ec b2 0a 3d 53 ad e0 3c e7 9f 18 bd
       -0.005976986 0.03386204 0.027426397 -0.03726187
0003a0 3e ec 2a 3e c4 5c d7 3d 03 af c2 3e d8 11 c3 bd
       0.16691682 0.105157405 0.38024148 -0.09524888
0003b0 03 2a d4 3b e2 f3 75 be 85 33 0a 3d 87 29 32 be
       0.0064747347 -0.24018815 0.03374054 -0.17398654
0003c0 45 1d 6d be 24 8d 72 be 1e 79 2e 3e 19 35 8f 3e
       -0.23155697 -0.23686653 0.1703839 0.27970198
0003d0 8c fc 97 3e 48 4d a0 3e 21 ca af bd a3 d1 bd 3e
       0.29684865 0.3130896 -0.08583475 0.37074003
0003e0 14 e8 3d 3e 3c 7e 40 3e ba 14 f0 bd 5c 1b 64 3d
       0.18545562 0.18798155 -0.11722703 0.055690154
0003f0 84 cf 21 be 82 6e 58 3e 8e 23 83 3e 0e 55 31 be
       -0.15801817 0.21135905 0.25613064 -0.17317602

rnn.bias_ih_l0 f4 [96]
000000 42 82 9b 3d 24 66 0c 3e 54 d9 40 3e b5 c9 52 3e
       0.07593204 0.13710839 0.18832904 0.20584758
000010 85 4f 44 3e 64 61 69 3e cc 3a 4c 3e 1a 0b a5 3e
       0.1917096 0.22791058 0.19944304 0.32235032
000020 27 0a 13 3e e8 ff ba 3d b6 ce 85 3e 56 08 b5 3c
       0.14359342 0.091308415 0.2613427 0.022098701
000030 87 03 22 bd 30 cc 98 3c a0 77 6e bd a0 e8 d1 3d
       -0.039554145 0.018652052 -0.058219552 0.10249448
000040 82 0b 10 3e 55 40 15 3e 87 02 1b 3e f1 ff b1 3e
       0.1406689 0.14575322 0.15137683 0.3476558
000050 13 9b 39 3e 4b 4b e6 3d d9 ea f0 bc 02 62 9c 3d
       0.18125562 0.1124483 -0.02940886 0.07635881
000060 41 01 15 3e cc c2 5b bd 7a df 5e 3e cb 49 da bd
       0.1455126 -0.05365257 0.21764937 -0.10658606
000070 d1 11 22 3e cb de 74 3d 29 c5 6c 3e d2 00 a7 3e
       0.15827109 0.059782784 0.23122086 0.32617813
000080 72 6e dd be ea 2c 67 be 04 74 27 be 82 89 ce bc
       -0.43248326 -0.22575727 -0.1635285 -0.025212053
000090 7d 39 ac be 01 d9 7e be 3f 9d 86 be 3a 77 92 bd
       -0.3363761 -0.24887468 -0.26291844 -0.07151647
0000a0 aa 89 53 be 85 7e a1 bd 9f 0e 62 bd 14 1b 0b be
       -0.20657983 -0.0788546 -0.055189725 -0.13584548
0000b0 f4 01 45 be cb f6 25 be 9b bf 44 be e5 a5 9e 3e
       -0.19239026 -0.16207425 -0.19213717 0.30985942
0000c0 de 4d d4 bc 07 0b a2 be 4c eb 45 be 83 10 98 3e
       -0.025916036 -0.31649038 -0.1932804 0.29700097
0000d0 f9 fb 1e be 8d 63 9c be a5 1b 94 3e b1 95 fe be
       -0.15525807 -0.305447 0.2892734 -0.4972358
0000e0 70 a9 a3 bd a2 05 04 3e da 17 95 be 68 f4 39 3e
       -0.07991302 0.12892774 -0.2911976 0.1815964
0000f0 cb 30 ff 3d cf b7 95 be df a3 50 3d 29 69 80 be
       0.124604784 -0.29241797 0.05093753 -0.2508023
000100 5f df 2d 3e 5c 55 b5 3d a5 49 2e 3e 9e 78 d5 bd
       0.1697974 0.08854172 0.1702028 -0.104233965
000110 f0 b1 8c be a5 5f 12 be ad de c5 bd ac 48 63 3b
       -0.27479506 -0.14294298 -0.09661613 0.0034680767
000120 23 f1 90 3d d2 15 bb bd 95 8d 5e 3e ee 89 1a be
       0.07077243 -0.09135021 0.21733697 -0.15091679
000130 b2 87 71 3c 98 21 fa bd 56 37 8e bd 84 22 a3 bd
       0.014741825 -0.12213439 -0.06944148 -0.07965568
000140 81 4c d5 3d 2f 53 ab bc 1a 0f 31 be 58 97 ba 3d
       0.104149826 -0.020913688 -0.17290917 0.09110898
000150 1b 9a b9 3d 34 4d 2e bc e2 49 26 be 1b a1 ca 3c
       0.090625964 -0.010638524 -0.16239122 0.024735024
000160 dd 46 0e be 2f e2 7b 3d 78 44 ef ba bc 94 0b 3e
       -0.1389422 0.061495002 -0.0018254658 0.13630956
000170 a4 11 94 bc a5 4b ed 3d 9a 36 0c 3e 02 de 1a be
       -0.018074818 0.11586694 0.13692704 -0.15123752

rnn.bias_hh_l0 f4 [96]
000000 a5 ae ad 3d 1a 87 a6 3d 38 18 02 3e af 51 02 3e
       0.084805764 0.08131237 0.12704551 0.12726472
000010 c2 ee c3 3d 99 c3 4a 3d a2 62 45 3e 78 34 3e 3e
       0.09567024 0.049502943 0.19275907 0.18574703
000020 92 77 c9 3c 90 38 c9 3d c5 c0 5a 3e 0b 20 6f 3d
       0.024593148 0.098252416 0.21362598 0.058380168
000030 95 e8 b4 bd 12 b6 90 3e d5 43 86 3c ae e2 2f b7
       -0.08833424 0.2826391 0.016389767 -1.0483591e-05
000040 3b d7 29 3d 8f bd 04 3e a3 33 77 3e cb 1e 0f 3e
       0.041465025 0.12962936 0.24140792 0.1397659
000050 28 6b 3e bc 40 63 e2 3d 0c eb b9 3d 11 58 11 3e
       -0.011622228 0.11054087 0.09078035 0.14193751
000060 c9 9d 24 3e 93 e3 e9 3c 2a 25 30 3e e6 74 44 3d
       0.16075815 0.028550899 0.17201677 0.047963046
000070 6e fb 41 3e 66 9a 8e bc fb 28 f1 3c 19 46 98 3e
       0.18943569 -0.017407607 0.029438486 0.2974098
000080 83 a0 cb be 82 c1 00 bf fa 17 83 be 53 44 6f bc
       -0.39770898 -0.5029527 -0.2560423 -0.014603692
000090 2a 2e 26 be 5e 59 80 be 51 af 2a be 4a e1 36 be
       -0.16228548 -0.25068182 -0.1666844 -0.17859378
0000a0 16 a3 94 be 56 ec 67 bd 2e fa 19 bd 61 4d 9a bd
       -0.29030675 -0.056621872 -0.037592106 -0.0753429
0000b0 80 26 b2 be 72 a6 a4 bd 93 40 fb bc b5 07 06 3e
       -0.34794998 -0.080395594 -0.03067044 0.13088877
0000c0 26 85 f8 bc c7 cf a0 be ff 09 4b be e8 92 f5 3d
       -0.030336928 -0.31408522 -0.19828032 0.11990911
0000d0 b0 af d1 be 35 99 fe be 21 7e 09 3e e7 ff 98 be
       -0.4095435 -0.49726263 0.1342702 -0.29882738
0000e0 38 d9 34 bd e2 99 df 3d 72 ad 2e bd 11 73 07 3e
       -0.04415247 0.10918023 -0.04264588 0.13227488
0000f0 58 5c aa 3e dd 41 7b be 36 b8 98 3d 06 5e a7 bd
       0.33273578 -0.24536844 0.074570104 -0.081722304
000100 71 82 a1 3e c9 0c a8 3e e8 a3 66 be 4a ae 5c 3e
       0.3154483 0.32822254 -0.22523463 0.21550861
000110 79 76 c8 3d 02 45 80 be b2 af a7 be e7 f4 90 3e
       0.09788222 -0.2505265 -0.32751232 0.28311846
000120 8b 00 19 bd fd 1e e2 3c 37 d9 76 3d 7a 1c 12 be
       -0.037354033 0.027602667 0.060265746 -0.14268675
000130 38 26 61 3e 80 58 44 3d 11 85 64 3e 04 fc dd 39
       0.21987236 0.047935963 0.22316386 0.0004234017
000140 e7 67 65 bd 11 ed 35 be 7c 0f 9d bd 57 26 1c 3e
       -0.056007292 -0.17766215 -0.07668969 0.15249
000150 b2 81 97 3e b5 d8 51 3e 47 89 94 3d a1 75 71 3e
       0.29591137 0.20492823 0.07252746 0.23580028
000160 d2 51 32 3c f7 fa 98 3d 3a b3 52 3d c1 20 ce 3c
       0.010883765 0.07469743 0.051440455 0.025162103
000170 87 e7 cd bd 33 99 8e bd 86 ed 7c 3e 5c 99 9a be
       -0.10053926 -0.06962814 0.24699983 -0.3019513

fc.weight f4 [88, 32]
000000 53 65 ae be 58 45 a2 be 88 91 91 be 36 b1 0d 3c
       -0.3406168 -0.3169353 -0.28431344 0.008648207
000010 97 49 5a be d2 27 88 3e c3 6e 71 3e 8b ee bc be
       -0.21317135 0.2659288 0.23577408 -0.36900744
000020 ac 62 9b be 06 e2 50 bd f8 ad ff be 19 33 8a 3e
       -0.30348718 -0.050996803 -0.49937415 0.2699211
000030 84 21 f2 bd 61 46 f3 3e 35 fe 3e 3e 8e de 8d 3e
       -0.11822799 0.47514632 0.1865166 0.27708858
000040 70 1d 08 be 78 84 6a 3e 45 5b 8a bb 83 cc 7e be
       -0.1329248 0.22902095 -0.004222306 -0.24882703
000050 44 37 94 be 58 d0 d4 bd 06 5c 0b 3f 03 70 09 bf
       -0.28948414 -0.10391301 0.5443729 -0.5368654
000060 75 71 5a be 37 ab 39 bf 30 1b c0 3e d2 20 bb be
       -0.21332343 -0.7252688 0.37520742 -0.36548477
000070 22 39 38 3e d3 75 d5 3e 3c 4f e6 be 57 fa 8d 3e
       0.17990544 0.41691455 -0.44982326 0.27730057
000080 24 8a a1 be 60 11 33 be 75 80 48 be 98 58 88 bd
       -0.31550705 -0.17487097 -0.19580252 -0.06657523
000090 a5 6a b5 be 6b b0 2f 3e ff 48 5c 3e b6 dc f4 be
       -0.35432926 0.17157142 0.21512221 -0.4782464
0000a0 a0 21 19 be 55 b4 14 bc e3 b5 e9 be 0c f3 67 3e
       -0.14954233 -0.009076198 -0.4564658 0.22651309
0000b0 d1 09 3b bd f3 25 c9 3e fe f8 0b 3e c0 d8 68 3e
       -0.04566366 0.39286765 0.13669202 0.22738934
0000c0 a9 3d 1d 3c 23 27 59 3e 3d 1b 57 3d 6c be 8a be
       0.00959722 0.21206336 0.05251621 -0.27098405
0000d0 98 31 d2 be b6 83 7a 3a 86 bf e6 3e da 41 a7 be
       -0.41053462 0.00095563696 0.45067996 -0.32667428
0000e0 0b c6 4b be 34 8f 43 bf 64 18 8a 3e 39 fd c7 be
       -0.19899766 -0.76390386 0.26971734 -0.3906038
0000f0 3f 76 95 3d 0d 1d d0 3e f0 d7 f5 be f3 ad 9b 3e
       0.07297944 0.40647164 -0.4801631 0.3040615
000100 0a 9d ac be e2 c1 4a be 85 1f 1f be 86 70 27 bd
       -0.3371356 -0.19800523 -0.15539367 -0.040878795
000110 1b 75 5a be 47 76 1d 3e 3a 0b b0 3e 81 8e 5f be
       -0.21333735 0.1537715 0.34383565 -0.21831705
000120 d6 d9 46 be 16 1a 8e 3b 61 cd 6f be af 60 39 3e
       -0.19419035 0.004336606 -0.2341819 0.18103288
000130 42 2d 72 be 09 7b ec 3e b5 2d 9e 3d 93 1d 7c 3e
       -0.23650077 0.46187618 0.07723562 0.24620657
000140 da 1e e4 bd f3 58 66 3e fd 76 66 bc 3a 6f 76 be
       -0.11138697 0.22494869 -0.014066455 -0.24065867
000150 6b 49 b4 be 17 df 05 be 1d 03 d9 3e 46 81 0d bf
       -0.35212263 -0.13073383 0.42385188 -0.5527538
000160 26 dd f5 bd fe d1 35 bf 01 22 d9 3e 50 02 6d be
       -0.12005071 -0.7102355 0.42408755 -0.23145413
000170 23 3e 04 3e 03 3b 8f 3e 94 b9 be be 3a 97 a7 3e
       0.12914328 0.2797471 -0.3725096 0.32732564
000180 87 99 91 3e c4 fc 72 3e 06 1c c5 be 02 87 b4 3e
       0.28437445 0.23729235 -0.38497943 0.35259253
000190 50 fa bd 3c 92 23 75 be 2c 9b 80 be f6 38 6a 3e
       0.023190647 -0.2393935 -0.25118387 0.22873291
0001a0 62 ac b0 3e 9a 9d d0 be ea b6 3e 3e 8c b2 8a be
       0.34506518 -0.4074524 0.18624464 -0.27089345
0001b0 0f fb c7 3e 7a ad 67 3f 14 f3 f9 3e dd 7a 6d be
       0.3905873 0.9049908 0.48818266 -0.231914
0001c0 0e f0 06 bf f1 d0 9e be 9e 69 d9 be 52 56 fd 3d
       -0.52710044 -0.31018785 -0.42463392 0.1236998
0001d0 90 26 88 3e 69 e5 d0 be 59 41 33 be 8f 7c 30 3e
       0.2659192 -0.40800026 -0.17505397 0.17235015
0001e0 6c ec b2 be a3 40 2c bf 27 50 8e be 51 5f 8b 3e
       -0.34946 -0.6728613 -0.27795526 0.27221158
0001f0 fb bb 25 be 6d 02 85 be c6 52 69 3e b4 27 8c be
       -0.1618499 -0.25978413 0.22785482 -0.2737404
000200 a8 39 fc be 32 72 db be 21 9f 8b 3e dc ee b9 be
       -0.49262738 -0.42860562 0.27269843 -0.36315048
000210 eb a2 cd 3d bc d1 e5 3e 80 68 c6 3e af 5b 20 be
       0.1004084 0.44886577 0.38751602 -0.15659975
000220 30 c0 e1 3d 97 84 8d 3e b0 3f 78 bd e5 71 cf 3e
       0.11022985 0.2764022 -0.060607612 0.40516582
000230 07 e1 b1 be 90 b2 60 bd a5 36 8a be d6 46 25 bc
       -0.34741995 -0.05485779 -0.26994815 -0.010087689
000240 b4 eb 84 3d 47 14 ad 3e 58 d2 a4 bd 71 bf f5 bd
       0.06490269 0.33804533 -0.080479324 -0.11999405
000250 39 2f 01 3e 59 3a ea bd e6 da 4e 3d e3 f3 44 bc
       0.1261567 -0.1143691 0.050501727 -0.012021038
000260 1b ee 7a 3e b2 48 ea 3d da 07 24 bd 46 c0 e9 bd
       0.24504893 0.11439647 -0.04004655 -0.114136264
000270 8a 6e 06 bd d1 75 23 3e 9c 49 8c be 2e ec bf 3e
       -0.032820262 0.15962912 -0.2739991 0.37484878
000280 a8 df 75 3e 11 ca 5b 3e eb 05 01 bf d2 9a 81 3e
       0.240111 0.21463801 -0.50399655 0.2531343
000290 7a b4 15 be 04 0c 77 be 4b f9 57 be 19 67 55 3e
       -0.14619628 -0.24125677 -0.21091191 0.2084011
0002a0 44 29 bf 3e ec 57 5f bd 73 4d 32 3e e3 88 88 be
       0.3733617 -0.05452721 0.17412357 -0.26666936
0002b0 77 13 29 3e 6a 82 80 be 8b 41 93 be 7f 70 ab bd
       0.16511331 -0.25099498 -0.28760943 -0.08371066
0002c0 89 4d f5 3d b4 00 9f be d0 24 ec be 08 27 4b 3d
       0.11977679 -0.31055224 -0.46121836 0.04959777
0002d0 44 1c 42 3e 57 d3 d5 3e 7c 20 25 be 20 dd 16 3e
       0.18956095 0.41762802 -0.16125673 0.1473279
0002e0 09 5e a6 3c 5f 9b 3e 3e b2 21 d5 3a 1e a8 5b 3e
       0.020308511 0.18613957 0.0016260652 0.2145085
0002f0 e9 3a 0a bd 65 bb d7 bd 27 71 49 3e 44 81 86 be
       -0.033747587 -0.105337895 0.1967207 -0.26270497
000300 55 65 66 3e 3e 26 57 3e d5 45 98 3d f5 59 5d 3e
       0.22499593 0.21010682 0.074351944 0.21616347
000310 d7 16 f5 bb 2b 7c 5c be ae b1 57 be 2b 4b 3d 3e
       -0.0074795294 -0.21531741 -0.21063873 0.18485706
000320 17 27 e3 3c 3e 14 3a be 77 c1 2d 3e f9 b5 7a be
       0.0277286 -0.18171784 0.16968332 -0.2448348
000330 d1 d6 1b bd 50 aa 46 be ea 51 5b 3e 99 c8 46 be
       -0.03804666 -0.19400907 0.21417966 -0.1941246
000340 59 f0 10 3e f2 17 94 be f6 27 40 3e c6 db bd 3d
       0.14154185 -0.2892452 0.18765244 0.09270434
000350 f8 c6 b5 bd a4 37 d8 be c6 2c 16 be b8 a7 0e 3e
       -0.08875841 -0.4222995 -0.14665517 0.13931167
000360 d7 9c 39 bd 5b d0 31 3e 2d 9e ad be 45 d4 13 3e
       -0.04531559 0.17364638 -0.3390974 0.14436443
000370 c9 dd 61 bc ca b0 51 be 94 bc 2d 3e 4e 87 71 be
       -0.013785788 -0.20477596 0.16966468 -0.23586771
000380 1b 40 85 3e 64 46 5c 3e de cf 00 bf f9 27 ba 3e
       0.2602547 0.21511227 -0.5031718 0.36358622
000390 c0 d9 29 bd 14 ad 6d be 0c ae 69 be 18 34 5a 3e
       -0.04146743 -0.23210555 -0.228203 0.21308935
0003a0 ef 5f c4 3e 49 22 a1 3d 1f 71 28 3e b0 1c 85 be
       0.38354442 0.078678675 0.16449402 -0.2599845
0003b0 dd 0e 99 3e 09 5c 77 be 57 62 91 be ff c5 48 be
       0.29894152 -0.24156202 -0.2839534 -0.1960678
0003c0 bf c2 27 3e 90 32 9c be 39 67 ea be a4 e1 9e 3d
       0.16382883 -0.30507326 -0.45781878 0.07757881
0003d0 eb 16 0e 3e 10 55 f0 3e bb 65 3c be 8f fa 4a 3e
       0.1387593 0.46939898 -0.18398182 0.19822143
0003e0 6f 7e 2e 3e 38 34 80 3e 82 68 98 3e 00 8a 70 3c
       0.17040418 0.2503984 0.29767233 0.014681339
0003f0 57 a8 21 be 62 4e 38 be 6a 5b 3b 3e 8d a7 86 be
       -0.15786873 -0.1799865 0.1829659 -0.26299706

fc.bias f4 [88]
000000 5b 53 02 bf 43 9c ba be 49 52 fc be 71 cb ae 3e
       -0.5090844 -0.36447343 -0.4928153 0.34139588
000010 7e 9a 3b 3d 0e 31 b8 3e 37 79 e7 3d 22 06 98 3e
       0.045801632 0.35974926 0.11302417 0.2969218
000020 f8 49 50 3e 17 b4 39 bc b2 b6 76 be 94 62 df 3d
       0.20340717 -0.011334441 -0.2409313 0.10907474
000030 5b ba 1b be cf ba 61 bd 00 bd 3e 3e f8 8b c4 3e
       -0.15207808 -0.055109795 0.18626785 0.38388038
000040 07 0a d5 bc e7 f9 d7 3d 77 f7 d3 3e 11 18 28 be
       -0.026005758 0.10545712 0.41399738 -0.1641543
000050 83 e4 0f be 06 84 b4 bc 85 93 e8 bd ed 89 a2 3e
       -0.14052014 -0.02203561 -0.11356262 0.31745854
000060 43 4c bc bd ce cc b2 3e e9 c9 5e be 03 83 9c 3e
       -0.09194233 0.3492188 -0.2175671 0.30568704
000070 93 7e 1f be bf 78 be bd 40 cb a6 3d 37 5a 94 3e
       -0.15575628 -0.09300374 0.081442356 0.28975078
000080 4a ae da 3d 49 12 5d be 02 38 92 be d2 f5 b8 be
       0.10677774 -0.21589006 -0.28558356 -0.36125046
000090 24 69 b9 be 9e 2e 0d be 00 e1 6d be 8c f7 ec be
       -0.36213028 -0.13787314 -0.23230362 -0.46282613
0000a0 fd 17 aa be a0 62 8d be c2 25 11 be 42 59 7a bd
       -0.33221427 -0.27614307 -0.1417456 -0.06112028
0000b0 18 9b 94 be 11 57 a9 be 7c 80 2b be e0 00 6f be
       -0.29024577 -0.3307424 -0.16748232 -0.23340178
0000c0 54 53 ba be 7c 77 bb bc e7 c7 2c be 33 8e d4 be
       -0.363917 -0.022884123 -0.16873132 -0.4151474
0000d0 57 44 a3 be 58 5f 90 be 34 1e c6 be 82 d5 7c be
       -0.31888077 -0.28197742 -0.38694918 -0.24690822
0000e0 55 b2 17 be bd 9a 93 be a8 f3 fb be a2 44 8b be
       -0.14814122 -0.28828993 -0.49209332 -0.272008
0000f0 60 84 00 bf 1e e3 88 be bb 64 af be a6 54 db be
       -0.5020199 -0.26735777 -0.3425654 -0.4283802
000100 78 78 b4 be 68 ea 1c be 0d ef d5 be 1a 00 bc be
       -0.3524816 -0.15323794 -0.41783944 -0.36718827
000110 bd 2e 8c be 9c 57 b1 be cb eb ca be 88 b7 54 be
       -0.27379408 -0.34637153 -0.3963302 -0.20773137
000120 24 67 c3 be e4 00 a9 be 7d 6f f9 be 98 c5 94 be
       -0.38164628 -0.33008492 -0.4871787 -0.29057002
000130 0e 75 98 be b1 90 0f be ac 84 71 be b8 f1 fb be
       -0.29776806 -0.14020039 -0.23585767 -0.49207854
000140 96 ae e5 be 1f e7 56 be f9 fb d2 be 7b d3 ea be
       -0.4485976 -0.20986603 -0.41207865 -0.45864472
000150 4b 8c 4a be a0 ca b7 be e3 62 82 be e4 ef 61 be
       -0.1978008 -0.35896778 -0.2546607 -0.22064167
