RNN/model_storage/ch6/surname_classification/model.pth (torch, 98722 bytes, 9 tensors)

emb.weight f4 [80, 100]
00000000: 0000 0000 0000 0000 0000 0000 0000 0000
00000010: 0000 0000 0000 0000 0000 0000 0000 0000
00000020: 0000 0000 0000 0000 0000 0000 0000 0000
00000030: 0000 0000 0000 0000 0000 0000 0000 0000
00000040: 0000 0000 0000 0000 0000 0000 0000 0000
00000050: 0000 0000 0000 0000 0000 0000 0000 0000
00000060: 0000 0000 0000 0000 0000 0000 0000 0000
00000070: 0000 0000 0000 0000 0000 0000 0000 0000
00000080: 0000 0000 0000 0000 0000 0000 0000 0000
00000090: 0000 0000 0000 0000 0000 0000 0000 0000
000000a0: 0000 0000 0000 0000 0000 0000 0000 0000
000000b0: 0000 0000 0000 0000 0000 0000 0000 0000
000000c0: 0000 0000 0000 0000 0000 0000 0000 0000
000000d0: 0000 0000 0000 0000 0000 0000 0000 0000
000000e0: 0000 0000 0000 0000 0000 0000 0000 0000
000000f0: 0000 0000 0000 0000 0000 0000 0000 0000
00000100: 0000 0000 0000 0000 0000 0000 0000 0000
00000110: 0000 0000 0000 0000 0000 0000 0000 0000
00000120: 0000 0000 0000 0000 0000 0000 0000 0000
00000130: 0000 0000 0000 0000 0000 0000 0000 0000
00000140: 0000 0000 0000 0000 0000 0000 0000 0000
00000150: 0000 0000 0000 0000 0000 0000 0000 0000
00000160: 0000 0000 0000 0000 0000 0000 0000 0000
00000170: 0000 0000 0000 0000 0000 0000 0000 0000
00000180: 0000 0000 0000 0000 0000 0000 0000 0000
00000190: 6939 013d 43ed 3dbf e077 98be 039f 8c3c
000001a0: 2f7a 35be bfa1 08be 9481 963e 2d46 b13f
000001b0: 1ca1 f73d a4ac 2240 30f5 23bf 60ac fcbf
000001c0: 4dbd a8be d765 023c b91d 6d3f 1e39 f1bf
000001d0: fbf7 2a3e 8cd0 ea3e 0e13 e2bf 3103 163f
000001e0: cd21 e03f d0ba 8f3e 9036 9f3e b05c 27bf
000001f0: 335a 28bf ce0b a33e b3b1 0cbf a582 bbbf
00000200: 578d 03c0 4bea e93f ffd9 a63f b477 e6be
00000210: 7a6e ac3f 0972 d83f 68dd febd c957 d7bf
00000220: 1df9 d9bc 1aa7 973d 989e 863f 698a 2d3f
00000230: da01 9d3e ae4a 3fbf a455 3e3f 883d 633f
00000240: 5c65 1240 2d0d 763f e4cc c3bf 651b 95be
00000250: af5f e9bd 1699 a0be 921a 21bf 97ba 913f
00000260: 21c4 7dbf a611 2e3e a8c8 9c3f fb2a 70be
00000270: 0951 87bf 147e 27bf 1fa2 cb3f e011 33bf
00000280: f163 65bf 4e8f 873d 1d86 66bd 99d6 1540
00000290: ba4c 2ec0 ee79 023f 0581 50bf 04f2 7bbe
000002a0: 67bc 933b 1709 0340 a353 21be 2aeb 5fbe
000002b0: 0c0c adbf 0e9f 6abd 274f edbf 1344 b1bf
000002c0: 3ad8 b0be eccc 94bf c5f2 133e 9c50 2a3e
000002d0: da2d 403f b3c5 693f 9126 ddbf ee1b a73f
000002e0: 3796 753f ddac 873f bd3e 213f 77b1 a4bf
000002f0: c4fe 2fbf 94d8 0840 eaeb 023f 240b 9c3f
00000300: 4990 433e 2f5d afbe 3bd3 e53f 581b b23f
00000310: 090d 8a3f 786d 1dbf cdee eabe 7946 113f
00000320: 51ac 3f3d d015 dcbf 4410 a23f be4b c23e
00000330: a0a4 92bf 663b 86bf 570c b8bd 6b04 3d3d
00000340: 723f 4e3e 4795 33bf 677f d8be 7964 07bf
00000350: 85e1 3b3f 6e53 0a3f 5337 953f 9cc5 433f
00000360: ff34 f13e f520 863f 359f 92be d19f 4dbf
00000370: ea82 21bf 1e7b a73e b0b8 0abf 0773 06bf
00000380: 7a98 21bf aad6 7fbe f51a f0bd bbcd 9cbe
00000390: 0742 63bd 539c 333f 4485 eabd 2e62 1cbf
000003a0: cf8c 6b3f 4526 d1bf 0bea 233f d78a fabf
000003b0: 9172 7ebf 7206 e73d aad2 eabe 9132 e9be
000003c0: d37b b43f 2c6a 4dbd 88cc 53bf bed6 98bf
000003d0: daa9 ef3e 7c52 8ebe edbb 4fbd cfed 57bf
000003e0: 989e 4abe adce 523e 0121 44bf d22b b4bf
000003f0: 5aaf 943f d978 f6bf e81b 08bf 204c 933f
0.0 0.0 0.0 0.0 0.0 0.0 0.0 0.0
0.0 0.0 0.0 0.0 0.0 0.0 0.0 0.0
0.0 0.0 0.0 0.0 0.0 0.0 0.0 0.0
0.0 0.0 0.0 0.0 0.0 0.0 0.0 0.0
0.0 0.0 0.0 0.0 0.0 0.0 0.0 0.0
0.0 0.0 0.0 0.0 0.0 0.0 0.0 0.0
0.0 0.0 0.0 0.0 0.0 0.0 0.0 0.0
0.0 0.0 0.0 0.0 0.0 0.0 0.0 0.0
0.0 0.0 0.0 0.0 0.0 0.0 0.0 0.0
0.0 0.0 0.0 0.0 0.0 0.0 0.0 0.0
0.0 0.0 0.0 0.0 0.0 0.0 0.0 0.0
0.0 0.0 0.0 0.0 0.0 0.0 0.0 0.0
0.0 0.0 0.0 0.0 0.03154889 -0.7419016 -0.29778957 0.017165666
-0.1772239 -0.13342951 0.29395735 1.3849541 0.12091276 2.5417871 -0.64046 -1.9740105
-0.32956925 0.007958851 0.9262348 -1.8845556 0.1669616 0.45862234 -1.7662065 0.5859862
1.7510315 0.28072214 0.31096315 -0.65375805 -0.65762633 0.31844944 -0.5495865 -1.4649245
-2.0555017 1.8274626 1.3035277 -0.450132 1.3471215 1.6909801 -0.12444574 -1.6823665
-0.026608044 0.07404919 1.0517149 0.6778932 0.30665475 -0.7472333 0.7434943 0.88765764
2.2874365 0.96113855 -1.5296903 -0.29122463 -0.11395203 -0.31366795 -0.6293117 1.1385068
-0.99127394 0.1699892 1.2248735 -0.23453896 -1.0571605 -0.65426755 1.590885 -0.6994915
-0.89605623 0.0661913 -0.056280244 2.341223 -2.723433 0.509673 -0.8144687 -0.2460404
0.0045085433 2.0474298 -0.15754561 -0.21867052 -1.3519301 -0.057280593 -1.853978 -1.38489
-0.34539968 -1.1625037 0.14448078 0.16632313 0.75069964 0.9131729 -1.7277395 1.3055398
0.95932335 1.0599629 0.62986356 -1.2866658 -0.68748116 2.1382189 0.51141226 1.21909
0.19098009 -0.3425078 1.7955087 1.3914595 1.0785228 -0.6149516 -0.45885316 0.5674816
0.046795193 -1.7194157 1.2661214 0.37948412 -1.145649 -1.0486877 -0.08986729 0.04614679
0.2014139 -0.70149654 -0.422847 -0.52887684 0.7339099 0.54033554 1.1657509 0.764734
0.47110745 1.0478808 -0.2863709 -0.80321985 -0.63090384 0.32711118 -0.5418806 -0.5251927
-0.63123286 -0.24984232 -0.11723892 -0.3062571 -0.05548289 0.70160407 -0.114512 -0.6108731
0.9201173 -1.6339804 0.64028996 -1.957362 -0.99393564 0.11280526 -0.4586385 -0.45546392
1.4100288 -0.05015008 -0.82733965 -1.1940534 0.46809274 -0.27797306 -0.05071633 -0.8434724
-0.19787061 0.20586653 -0.7661286 -1.4075873 1.1616013 -1.925563 -0.5316758 1.1507607

rnn.rnn_cell.weight_ih f4 [64, 100]
00000000: 2c23 a9bd 378a 193d 15ab 58bc a98b a6bd
00000010: 6249 05be 3b92 023e f211 b9bc 08e9 0a3e
00000020: f54c 9bbd 9b91 0ebd 2108 5e3d 8b49 b43d
00000030: 0bd5 8bbd 927d b1bd e400 acbd 2235 91bd
00000040: d30f 943c 65b4 783d 629f ad3c 9657 e9bd
00000050: aa6e b4bd 8039 8fbd 8dad 0bbd 1098 09bd
00000060: 658d a93d 6354 04be 931a a73d 21d7 c7bd
00000070: 8a70 8cbd 3ba3 bb3c 18a8 1e3c c67a c73d
00000080: e567 98bd 023c b73d 94dd d1bd aa10 a13d
00000090: 5454 e93d 2232 b63d e438 f23d 9df9 753d
000000a0: 453f e6bd 1d78 f4bd 07de 2ebd 25a7 663d
000000b0: 2b40 f33d a0ad 813d 615e 0fbd 6d1a 3c3d
000000c0: c347 773d 4cb4 16bd eba8 88bd 35e2 1dbe
000000d0: fca7 8b3c dae9 673d 29e8 c3bd a824 c6bd
000000e0: bffc 303d 67fa 203d 816d 4dbd 5924 983d
000000f0: 32cd b3bd 6ecd 783d 32a5 233d 6c7d 923c
00000100: 469e a5bd b40c 903d 977c bbbd c144 a939
00000110: 23be 02be 8145 e3bd b800 b43b ec20 55bd
00000120: 1c9f cdbd c281 8dbd 0954 073c b491 fa3d
00000130: bfcb 4fbd d4fa c33d 632e a9bd 6533 e03b
00000140: 302a dd3d f568 963d 8c36 0ebe 3104 b93d
00000150: ecb5 28bd 1197 8a3d d0f9 73bd 0752 4f3d
00000160: 2b57 243c 3b5d d93c 3194 203e fa4f cbbc
00000170: f780 e33d 244d e4bd 18e5 01be b3f9 c0bd
00000180: d5b4 f23d 3545 61bd 8410 2f3d ba1f 913d
00000190: 3db8 083d e9a7 383d 83aa 733d 753e f03d
000001a0: 1df5 26be 5c02 04bd a3f9 773b 4cf8 14bd
000001b0: d800 5ebd 22cf 7dbd 3f48 b43c 6681 13bb
000001c0: 93ab be3d 7661 23bd 135a 953d 0e45 ffbd
000001d0: c4f5 853d a100 96bd 5091 7abd a2cb 95bc
000001e0: 4cd4 29bd 0c3d e2bd 39db d8bc f512 743d
000001f0: ee21 9b3c 9473 153e d6f1 16bd 3567 18be
00000200: b015 bfbd 4f43 95bc 39e8 193e 5365 bf3d
00000210: 2cef 833c a0a6 d2bd b27d 693d 88d4 c33d
00000220: 8761 743d 9668 19bd 02b6 ecbd 3875 883d
00000230: 3c84 d73d f016 84bd 2bc0 b6bd 74e5 343d
00000240: 753e 10be deb7 11bd a1aa 89bd a2de d4bd
00000250: 3db4 4a3d dcf8 253b 3c61 d9bd bfbb 01be
00000260: bd6b 543d 1e39 ddbd 78f3 ca3c 28db f73d
00000270: bdfb 113e ee23 33bd 810d 85bd 7d76 ff3c
00000280: 8925 95bd 403f aabc 1719 a6bd f89e 573d
00000290: dc02 8abd 5463 ae3d 8f79 36bb 289e a53d
000002a0: a22f 43be 3cbb 98bd d976 683c cb70 ca3d
000002b0: e60e 413d 2ade 88bc 2025 03bd 64ca 07bc
000002c0: 7985 28bc 8545 a43c 1d94 12bd 2437 31bd
000002d0: 0b45 423c b1f4 ce3d 231d e23d 5256 11be
000002e0: 5641 a2bd 9c08 6ebd fa50 883d 2af4 15be
000002f0: 21de c1bd f29e 773d 9322 68bd 7bfe 00bd
00000300: fd6d 553d 1864 a2ba 4ef1 1fbd 024c 773d
00000310: bef4 353d 587a 98bd dae4 00be 9cde 1f3e
00000320: ad8f 5c3d a38f a03d 88ca 993c 1186 97bc
00000330: c741 fe3c e3de 883d 4b91 cb3d 13f2 6abd
00000340: 4696 7fbd 9c96 c23a 8ea6 81bd 853d b6bd
00000350: b387 813d 3fed 2fbd 40e8 9d3d b87a b4bc
00000360: bd88 5f3d 5d49 05be 7abe 3ebd 952c 05bc
00000370: f5d0 34bd ce20 643d e29d 723d 5dae a43d
00000380: 7b1c 853d 8cdb 0f3d 76a0 343d b7bc 423d
00000390: 0c3c 4739 4e34 b6bd a77e 943d efbd a9bd
000003a0: aa7c 7c3d 8818 b2ba 9d0d d3bb 2fe7 ed3d
000003b0: 1035 97bd 866a bc3d 4809 a63d 707c 80bc
000003c0: 21b4 a3bd 941f d1bd 4c1b a73d a92f 33bc
000003d0: eccc dcbd 624e 13bd c48c 783d 32a9 e13b
000003e0: e1ff 00be 5b0c a73c 7905 15be b4ec c83d
000003f0: 761f 4a3d 0ec9 83bc 121e 883d 6f4a f8bd
-0.08258662 0.037485328 -0.013224383 -0.08132107 -0.13016275 0.12751095 -0.022591565 0.13565457
-0.07583038 -0.03480683 0.05420697 0.0880309 -0.06827744 -0.08666529 -0.083986074 -0.070902124
0.018073952 0.060718913 0.021194164 -0.11393659 -0.0881017 -0.06993389 -0.034101058 -0.033592284
0.08278922 -0.12922816 0.081593655 -0.097578295 -0.068574026 0.022904983 0.009683631 0.09740214
-0.07441691 0.089469925 -0.10247341 0.078645065 0.113930374 0.08896281 0.11827257 0.060052503
-0.112425365 -0.11936972 -0.04269221 0.056311745 0.118774734 0.063319445 -0.035002116 0.04592364
0.06037117 -0.03679304 -0.066728435 -0.15418322 0.017047875 0.056619503 -0.095657654 -0.096749604
0.043209787 0.039301302 -0.05015326 0.07428808 -0.08779372 0.060742788 0.039952464 0.017882071
-0.08086829 0.07033673 -0.09154623 0.00032285418 -0.12767844 -0.11097241 0.0054932497 -0.05203335
-0.10040113 -0.06909515 0.008259782 0.12234822 -0.050731417 0.09569326 -0.08260801 0.006842064
0.10799062 0.07344238 -0.13887995 0.090340026 -0.04118912 0.06767095 -0.05956441 0.050615337
0.010030548 0.026533714 0.1568153 -0.02481841 0.111085825 -0.11147526 -0.12685049 -0.09422626
0.11850897 -0.05499764 0.04274036 0.070861295 0.03337883 0.045082007 0.059488785 0.11730663
-0.16304441 -0.032228813 0.0037838004 -0.036369607 -0.054200023 -0.061965115 0.022007106 -0.0022507547
0.09310069 -0.039887868 0.07292571 -0.12464343 0.06541017 -0.07324339 -0.061173737 -0.018285576
-0.041462228 -0.110468 -0.026471721 0.05958839 0.018937077 0.14594871 -0.036851726 -0.1488312
-0.093303084 -0.018220572 0.15029992 0.09345498 0.016105257 -0.102856874 0.057004638 0.095620215
0.05966332 -0.037453257 -0.11558153 0.06662983 0.105232686 -0.064496875 -0.08923372 0.044164136
-0.14086325 -0.03557574 -0.06721998 -0.10394026 0.049488295 0.0025325334 -0.10614249 -0.12669276
0.05186056 -0.1080191 0.024774298 0.121023476 0.14256187 -0.043735437 -0.06496716 0.03118443
-0.0728255 -0.020782113 -0.08110254 0.05264184 -0.06738827 0.08515039 -0.002784345 0.080868065
-0.19061139 -0.07457587 0.014188492 0.09884795 0.04713335 -0.016707499 -0.032017827 -0.008288
-0.010285729 0.02005268 -0.035785783 -0.043265477 0.011857281 0.10105265 0.11040714 -0.14193085
-0.07922618 -0.05811368 0.0665607 -0.14643922 -0.09466196 0.060454316 -0.056673598 -0.03149269
0.052106846 -0.0012389449 -0.039048485 0.06037522 0.044422857 -0.0744521 -0.125873 0.15612262
0.053847957 0.078398965 0.018773332 -0.018496545 0.031037224 0.06683137 0.09939822 -0.057359766
-0.06239917 0.001484591 -0.06330596 -0.08898453 0.06324711 -0.042950865 0.07710314 -0.022031173
0.054573763 -0.13016267 -0.04656837 -0.008128305 -0.04414459 0.055695347 0.0592326 0.0804107
0.06499573 0.035121486 0.04409834 0.047543254 0.00019000488 -0.08896695 0.072507195 -0.0828818
0.061642326 -0.0013587633 -0.006440832 0.116163604 -0.07383168 0.09200005 0.08107239 -0.015684336
-0.07993341 -0.10211101 0.08159503 -0.010936656 -0.10781273 -0.035963424 0.06068112 0.0068866247
-0.1259761 0.020391634 -0.14552869 0.098107725 0.04934641 -0.016087081 0.066463605 -0.12123572

rnn.rnn_cell.weight_hh f4 [64, 64]
00000000: 880c f53d 022d d33b 2bd8 303d 388f a8bd
00000010: 3df1 12be 3c8f 413d 149e 0fbd 4e0e 203e
00000020: 2121 abbd d4f8 2c3e 6732 033d 855d 19bd
00000030: 382f a3bd 0b3d 083d dda0 133e 82f3 2f3e
00000040: 1528 4cbc 04f2 d33d fac7 0e3e 1410 8ebb
00000050: d52c eb3b 532c 0b3e e9ad 14bd e8ce 97bd
00000060: b24e 993d df89 a739 71ce 07be a151 733d
00000070: 3c1a 9bbd 341c 263e ee1c b6bc 4f18 903c
00000080: 1add 06be 61fb e73d fc4d 983d f964 1ebe
00000090: 26c4 af3c 29a5 493e d3c8 1b3d 3f1b b8bd
000000a0: a148 3e3d 675a bcbd 7d4d dbbd 66e4 aa3d
000000b0: 25be 113e e6a8 6abd 062b 9fbd ac00 a3bc
000000c0: 1209 ebbd 04e7 45bd 90aa f4bd c90c 0b3d
000000d0: 0c60 edbd 413e cf3d 7271 8d3d ff4a a8bc
000000e0: 92f8 083d 9f0c 723e ebfb aa3c 8699 f93d
000000f0: 24fb b0bd f4db ca3d ff74 8a3d 68d5 67bd
00000100: 4aad 8e3d 74e4 cdbd b7aa 213e 0e79 953d
00000110: bec7 df3c d56a 90bc 151c 1a3e e9c8 ca3d
00000120: 7e28 0f3e 6e62 afbc 57ef 6cbd d746 343d
00000130: 11d0 123e 441b e9bd 8aaf 3d3e 2579 043d
00000140: 820e 133e 1d95 15bd b19a 04be 32b8 89bd
00000150: a9ff 4e3c b221 41be e493 433c 05b2 a6bd
00000160: cad2 003c 623d 603b a0fb 88bd eac9 0c3e
00000170: 20c0 c13d be7c c4bc d1c0 d53c aa8f 96bc
00000180: f878 d8bb 5470 8ebb 03f9 4d3e c477 203e
00000190: 2514 c83c 5b12 053c 0bc1 773d e126 a03d
000001a0: def8 c93d aa5a 293d d60a 903c 8625 11be
000001b0: bbd8 14bc 925d f6bd f580 a6bb 3401 1d3e
000001c0: b00e 973c 3441 54bd 7235 873b df99 14bd
000001d0: cad6 acbc 724b 793b aba0 a3bd 0471 37bd
000001e0: 86f1 72bd da72 adbd f99b d8bc 18d1 eabc
000001f0: 9bb4 a9bc a180 4abe 86e2 743b 62fc 903d
00000200: c871 c3bc c5ce cfbd 293f 72bd 0be1 2f3c
00000210: 22db 3bbe b26f 0d3b b035 603c a347 8cbd
00000220: 5035 1abc c4f2 8d3d cfb3 5cbc 735d 433e
00000230: 0074 033d f1fd e0bc b44d bcbd ca90 56bb
00000240: 925c 93bc c1aa febd 49c2 aa3c fc59 9a3d
00000250: 4ff1 743d d47e b9bd 8b44 9e3d b4b5 c83d
00000260: 5f88 09be 2d93 8cbd a344 acbc fb54 c33d
00000270: 1ecb e83c 82f3 293d 5de4 ed3d 2f0c 2abe
00000280: c662 52bc 82f0 0e3d 0506 67bd f49d f13d
00000290: ea94 d23d b010 c03d 341d d03c fc68 5abd
000002a0: c57b f93d 4be0 783c 337c 803d 7bce 73bd
000002b0: 6519 823d df8a eebd 13e8 d6bd 7555 1d3d
000002c0: a559 01bc c9b8 e93b e24d cdbd f630 0d3e
000002d0: 0e22 d2bd 832e b33d a29b 6abc d7a5 ca3d
000002e0: d108 043e b17d 26bd 0218 153c e0d9 d3bd
000002f0: fddc c8bc 4833 da3c e20b fc3c b645 a0bd
00000300: a6c2 20be 479b c8bb e6c7 0e3e 41cd 823c
00000310: 721d 4b3e 52b8 4d3d e286 8d3e 83cd 08be
00000320: 099e 5fbd 2aad 81bb 99e6 e3bd f710 643d
00000330: c451 053d f1ea bf3d 1b94 043e 31e9 8f3c
00000340: d585 1c3e fbe1 593d 8d4b e8bd 5b9e 72be
00000350: 30bf c3bd f1ee a3bd 2611 babd 8ae8 9dbd
00000360: 824c 54be 40e0 533e 7b99 2e3e f483 8ebc
00000370: ea51 073b 854f 1c3d 1a67 4dbe 8e94 943d
00000380: ab0f 74bd 5412 e5bd be3f 233e e48a 833d
00000390: e69d 3c3e 69c7 b8bd 5097 103d 4c82 57b9
000003a0: fe71 233d 3e2d dbbc 0c56 c4bc 5ef9 5cbd
000003b0: ed04 45be a857 55bd a323 0fbd 1cc7 603d
000003c0: 909d dc3d 7b0d 513d 4836 aebd aa53 0b3e
000003d0: 9c79 17be 75da bc3d 055c b83d 35c7 90b9
000003e0: 4820 03be 39b0 78bc ca3b 19be 77b9 8b3c
000003f0: 6d6c 663e 7569 6bbe bf95 8bbc fec7 023d
0.11965281 0.0064445743 0.043174904 -0.08230442 -0.14349838 0.04725574 -0.035062864 0.15630457
-0.08355928 0.16891795 0.03203049 -0.037442703 -0.07967991 0.03326134 0.14416833 0.17182735
-0.012460728 0.10348895 0.13943473 -0.0043354128 0.0071769753 0.13591127 -0.036298666 -0.07412511
0.07485713 0.00031955444 -0.13262345 0.05940402 -0.07573363 0.16221696 -0.022230592 0.017589716
-0.13170281 0.113272436 0.07436749 -0.15468206 0.021455836 0.1969191 0.038033318 -0.08989572
0.046455983 -0.091969304 -0.10708139 0.08344345 0.1423269 -0.05728998 -0.07771878 -0.019897781
-0.114763394 -0.048316017 -0.11946595 0.03394774 -0.11590585 0.10119296 0.069064036 -0.020543573
0.03344018 0.23637627 0.020872077 0.121874854 -0.08641651 0.09905234 0.067605965 -0.056600004
0.06966646 -0.100533396 0.15787779 0.0729848 0.027316924 -0.017629066 0.15049775 0.09901602
0.1398029 -0.02140924 -0.05784544 0.04401287 0.14337184 -0.11382154 0.18523994 0.032342095
0.14361003 -0.03651916 -0.12949635 -0.067245856 0.012634196 -0.1886051 0.011937115 -0.08139423
0.007862756 0.0034216275 -0.06688619 0.13748899 0.09460473 -0.023985263 0.026092919 -0.018379051
-0.0066062175 -0.0043468866 0.20114522 0.15670687 0.024423668 0.008122052 0.060486834 0.078199156
0.09861921 0.04134623 0.017583292 -0.1417447 -0.009084876 -0.12029566 -0.005081291 0.1533249
0.01843962 -0.051819995 0.004126244 -0.036279555 -0.021098513 0.0038039354 -0.07989629 -0.044785514
-0.059312366 -0.08469172 -0.026441561 -0.028664157 -0.020716002 -0.1977563 0.0037366464 0.07079388
-0.023857966 -0.1014686 -0.059142265 0.010734807 -0.18345311 0.0021581468 0.013684675 -0.06849601
-0.009412125 0.069310695 -0.013470604 0.19078617 0.032093048 -0.027464839 -0.09194508 -0.003274011
-0.017988477 -0.124349125 0.020844596 0.075366944 0.059800442 -0.09057394 0.07727917 0.09800282
-0.13430928 -0.06864009 -0.021028822 0.09537693 0.028417166 0.041491993 0.116158225 -0.1660621
-0.012840932 0.034897335 -0.056402225 0.11797705 0.10282309 0.09378183 0.02540455 -0.053322777
0.1218181 0.015190194 0.06273689 -0.059523087 0.063525 -0.11647581 -0.104934834 0.038411576
-0.007894908 0.007132624 -0.100246206 0.13788208 -0.10260402 0.08749106 -0.014319332 0.09894913
0.12893988 -0.040647212 0.009099962 -0.10344291 -0.024519438 0.02663578 0.030767385 -0.07825796
-0.15699252 -0.006122026 0.13943443 0.015967013 0.19835451 0.05022461 0.2764197 -0.13359646
-0.054594073 -0.0039574103 -0.111279674 0.05568024 0.03254868 0.093709834 0.12947123 0.017567249
0.15285428 0.053194027 -0.11342535 -0.2369322 -0.095579505 -0.08004559 -0.09085302 -0.07710369
-0.2073231 0.20691013 0.17050736 -0.017396905 0.002064819 0.038161773 -0.20058861 0.07254897
-0.059585255 -0.111851364 0.15942284 0.06422976 0.18419608 -0.090224095 0.035300553 -0.00020552537
0.039903633 -0.026754972 -0.023966812 -0.053948753 -0.1924016 -0.05208555 -0.034946095 0.054877385
0.1077224 0.051038247 -0.08506447 0.13606134 -0.14792484 0.09221355 0.09001926 -0.0002761424
-0.12805283 -0.0151787335 -0.14964214 0.01705621 0.22502299 -0.22989447 -0.017039178 0.03192901

rnn.rnn_cell.bias_ih f4 [64]
00000000: dc14 99bd cba4 d9bd 1888 eabd 1218 cb3d
00000010: c9fe 9cbd eee1 22bd 750f c73c 1b0e b8bd
00000020: 4eb3 9ebd 29ea a33d f7c3 e73c bafc 363d
00000030: f148 d43d 1b31 353d 31dc 553d 871d b93c
00000040: 5c10 3cbd 37e6 c5bd d7cd b0bd 2f1e 87bd
00000050: 1df7 82bd 0657 e23d aad9 273c c13f f0bd
00000060: 84eb 5b3d b9e4 f1bd 1846 8c3d 3977 b3bd
00000070: 163a ccbd d958 b43c 80a7 26be c39e 6fbc
00000080: 86cd bc3c 4322 8d3d e2b1 173d a2c1 223d
00000090: 2dbc 943d 7f08 e63d 2a4e 5abd ad0d 6bbb
000000a0: 4d36 a1bd 98a6 933d d0ed b13d a93d 143d
000000b0: 0052 b93c 9e73 08bc b7a9 c2bd ec2c 803d
000000c0: 4fc7 0fbd 8c4f d03c 5ccc f7bd 9026 403d
000000d0: 28a5 f5bd 5586 d3bd 91c0 e1bd 9ade fbbc
000000e0: d8d9 953d 4090 ee3b 5bdb 6b3d 1fb5 e7bd
000000f0: 4a3d 2e3c 6095 3e3d 5c17 7b3c 5dc8 1dbd
-0.07474682 -0.10627135 -0.11451739 0.099167004 -0.07665784 -0.039766245 0.024299363 -0.089870654
-0.077490434 0.08003647 0.028291686 0.044674613 0.10365475 0.044236284 0.052211944 0.022597088
-0.04591404 -0.096630506 -0.08633011 -0.06597554 -0.06394789 0.11051755 0.010244766 -0.1173091
0.053691402 -0.118112035 0.06849307 -0.08762974 -0.099720165 0.022015022 -0.16274834 -0.014625254
0.02304722 0.068913005 0.037034877 0.039735444 0.07262454 0.11232089 -0.0532972 -0.0035866306
-0.07871685 0.072095096 0.08687937 0.036191616 0.022622108 -0.008328347 -0.09505027 0.06258568
-0.035102185 0.025428556 -0.12099525 0.046911776 -0.11994392 -0.10328356 -0.11023057 -0.030745793
0.07316941 0.0072803795 0.05758224 -0.11313843 0.01063473 0.046529174 0.0153253935 -0.03852116

rnn.rnn_cell.bias_hh f4 [64]
00000000: fe66 c73c 81b2 033d 667e dcbd 2ad1 f33c
00000010: 3337 d13c 8f6b 7a3d 034b c6bc 47d6 9b3c
00000020: 70c8 97bd 95ec bcbd 3a2c 713d 6a42 55bd
00000030: ab59 16bd 393a 5abd a8d4 51bd 0bca e43d
00000040: 5569 b03c a08f 413d ce14 613d 286e 003d
00000050: f1a4 c03d 8fe1 653d 7dc5 2ebd bdfa 973d
00000060: 34d5 d03d 3908 e2bd 6e49 92bd 4eaf 993c
00000070: 565f bc3d a889 cc3c 362e 983d aecd cabd
00000080: d7d6 efbd 0d89 db3d 047b 01be 9d09 95bd
00000090: 1791 b2bd 5f5a 0c3e 2cca ca3d edba 0dbd
000000a0: 6b40 d83d 5483 f9bd 9039 81bd 6aff 8abb
000000b0: 37c2 823d 8bf1 d8bd 0b42 cabc 8ab9 b6bd
000000c0: 38b1 853d ec82 fabd 1a21 b13c 1aba dbbd
000000d0: 547a 883d 297a ce3d eb7b b43d 97af 863b
000000e0: 3c18 4f3c 0f9f cdbc b83d d6bd 3570 f9bd
000000f0: 08f2 6b3d 2b19 ec3d 84e1 803b ab88 a6bd
0.024341103 0.032152656 -0.10766296 0.029762823 0.025539016 0.061137732 -0.02420569 0.019023074
-0.07411277 -0.09224812 0.05888007 -0.05206529 -0.036706608 -0.05327818 -0.051228195 0.11171349
0.021534601 0.047256112 0.05495148 0.031355053 0.0940646 0.056123313 -0.04266881 0.074208714
0.10196915 -0.110367246 -0.07142912 0.01876035 0.091978714 0.024967983 0.07430689 -0.099025115
-0.11710899 0.107195 -0.12644583 -0.07277224 -0.0871908 0.13706349 0.099018425 -0.034602094
0.10559162 -0.12183252 -0.06309807 -0.0042418735 0.063847 -0.10592946 -0.024689695 -0.089221075
0.065279424 -0.122320026 0.02162223 -0.107288554 0.06663957 0.10081894 0.08812698 0.0041102874
0.012640055 -0.02510026 -0.10460991 -0.12179605 0.057603866 0.11528238 0.0039331336 -0.08131536

fc1.weight f4 [64, 64]
00000000: aebe 28bd 9c54 74bd 7fc0 cd3d 0f8d febd
00000010: f740 c33d 9b1f 11be 49c5 07be 1363 01be
00000020: 5913 a4bd 4bc7 15bd dbff d4bd 9919 7e3c
00000030: 8388 f83d 5e33 05be 6521 623d c44f 0ebd
00000040: b69a 563c a5ed 5c3c 47c8 b8bd f9ce c43c
00000050: 629e 08be 1b1e 85bd f44a 0abc 03cf f03d
00000060: a59b abbc 7697 4a3d 0716 03bd d592 2fbd
00000070: 3b13 703d 2faf d53c 62c6 903c aee0 0bbe
00000080: 45dc 363d 6650 a93d 2f25 d3bc b405 953b
00000090: 1eda d03d e6cc 163c 098d 8cbc e5e7 8fbd
000000a0: b265 d8bc e592 993d 93ba 273d 3ed9 f5bd
000000b0: 5094 643d 9f10 073e fb62 3f3d b187 f83b
000000c0: fe5e 133e 1ce9 28bc 64cf 99bd e6b1 0dbd
000000d0: c1df 11bd 2313 5d3d fd2c 103d f51c 6f3d
000000e0: f94e 99bd 8005 523e 8a30 86bd d8dd 063e
000000f0: eb02 fb3c 6bdb c7bd 4fcc aebd 8814 883d
00000100: 011c 6fbd a0f1 023e b129 ccbc e178 603d
00000110: 136b a03d 98cc babd 78f0 a33d 1795 17bd
00000120: 2c40 08bd 3d30 cbbd 7d0c 0f3e 35b2 8bbd
00000130: 7b58 cfbd 59ac 183e f1f7 0fbc 347b 3a3d
00000140: f424 053e 4cdf 8c3d 4934 1a3e b7ad c7bd
00000150: 4a0f 42bd 7929 e03d 0379 ba3d 47b4 b93d
00000160: 76a2 2b3e 9da1 73bd c56a 5ebc a546 20bd
00000170: 48c5 293d 41ad 9e3d 047a a73d db52 373d
00000180: c368 c9bc 8f8d aa3d 89a0 a83b 8194 12be
00000190: 3dd0 d53c 0068 de3c 032c 49bd 48db f1bd
000001a0: fa2c 79bd 09a7 c2bd fff3 603c 0510 b33d
000001b0: ba12 d3bd 2097 d43d 2aa9 df3d dc42 933b
000001c0: 532e 69bd 713b a93d e0cc 993c 32df df3d
000001d0: a8af a9bc 1915 61bc 815e bcbd 9892 1abd
000001e0: 3d2a 00be 717a 0abd 0d78 f6bc 7651 053d
000001f0: 15b9 f5bd adfd aebd 280c adbd f76c 9ebd
00000200: 06ea 32bd ddee 633d e495 d13c 29fc d1bd
00000210: a9b6 823c 17af a9bd f423 e0bd cd62 1d3e
00000220: f259 f83c 6f80 163e 27fc 1f3e 4033 65bc
00000230: 6ac8 60bd 063b e5bd 12d3 d93d 1449 ac3c
00000240: f661 8ebd 14fb 343d 4aff a6bd 7c2e 84bd
00000250: 3189 62bd 7cf9 15be 2381 043e f9a4 c73c
00000260: 3d7e 22bd 0895 333d 78cc 083e c5fa 123c
00000270: 084c 03be bc2a 28bc 4e90 373d 24b7 96bc
00000280: c5da ecbd b9eb 7cbd 80ad 203e a2df 613d
00000290: e785 7abd 8ccc 073e 251f 7c3c f0cc 20bd
000002a0: 54a0 56be c611 3d3d 27e6 93bd 6344 003e
000002b0: aa1a 99bd 291a 183e 9714 72bd a80f 9dbc
000002c0: 59d0 58be 216e 91ba bfa9 ecbd 2e77 fabd
000002d0: ea12 943d a70c fcbd 79e8 bf3d dff2 04be
000002e0: f697 f3bd 10c2 293e 01a8 343e 5849 dcbd
000002f0: 99fc 29be 7a36 ccb8 ea80 b33d 95e6 8ebd
00000300: 462f 8b3d 0ba2 0cbd 211e 713d aea1 9a3d
00000310: d679 033d 9589 853d 71e6 213c c9e5 683d
00000320: ea54 91bd c5c1 17be 6a5b 333e 8db9 b4bd
00000330: e00a 06bd 4f7b aebd bef2 f1bc a36f b8bd
00000340: 05d9 60be 2009 ecbd 5b52 b4bd ebc7 433e
00000350: 28b9 f1bc c2a8 17bc 09ee 81bd 9a38 ee3c
00000360: 2768 773d 1deb 08be 2540 e43d 2c86 533d
00000370: 1d93 8d3d 8920 533c 7601 0fbb fc5a 1f3d
00000380: 7ab9 b53b c644 b3bc 5b02 8dbd cf49 d83d
00000390: 83cb e23d e461 143d 3224 30bb 9fbe 80bd
000003a0: 59d2 673d bcc1 793d c38d 823d cf08 8cbd
000003b0: 9980 eabd 6cef 323d 0de6 503d 9865 443d
000003c0: 1bd2 32bd 73b8 693e 2635 29bd 1c44 4d3d
000003d0: c41d 08be c0af d83d 874b 42bd ad3b 90bc
000003e0: 79e4 3fbd 0386 a9bd 29fd 47be 6d66 a5bd
000003f0: ac06 47bd ca51 32be bb3f bebd 51cf dd3d
-0.04119747 -0.059651002 0.10046481 -0.124292485 0.095338754 -0.14172213 -0.13258852 -0.1263545
-0.08011503 -0.036567014 -0.10400363 0.015509033 0.121354125 -0.13007876 0.05520763 -0.03474404
0.013098409 0.013484393 -0.09022575 0.024024474 -0.13341668 -0.06499883 -0.008440722 0.11758234
-0.02094824 0.04946085 -0.03200343 -0.04286464 0.05861209 0.02608451 0.017672721 -0.13659927
0.04464366 0.08267288 -0.025774566 0.004547799 0.101978526 0.009204125 -0.017157095 -0.07026652
-0.02641568 0.07498721 0.040949415 -0.12004326 0.055805504 0.13189934 0.046725255 0.007584535
0.14391705 -0.010309484 -0.0751026 -0.034593485 -0.03561378 0.05397333 0.035199154 0.058377225
-0.07485766 0.2050991 -0.06552227 0.13170564 0.03064104 -0.097586475 -0.085350625 0.06644541
-0.058376316 0.12787485 -0.024922224 0.05480278 0.07832923 -0.091210544 0.0800485 -0.037007418
-0.033264324 -0.0992131 0.13969608 -0.068211 -0.10124298 0.14909495 -0.008787141 0.045527652
0.13002378 0.06878528 0.15059008 -0.0974993 -0.047377862 0.1094541 0.091051124 0.09067588
0.16761193 -0.0594803 -0.0135752605 -0.039129872 0.041447908 0.07747889 0.081775695 0.04475675
-0.024586087 0.083277814 0.0051460904 -0.14314462 0.026100272 0.0271492 -0.04911424 -0.11809403
-0.06083391 -0.09504516 0.013730048 0.0874329 -0.10306306 0.10380387 0.10920937 0.0044940542
-0.056928944 0.08263291 0.01877445 0.10931243 -0.020713642 -0.01373794 -0.09197713 -0.03773746
-0.12516113 -0.033808175 -0.030086542 0.03254839 -0.11998192 -0.085444786 -0.08449584 -0.07735627
-0.043680213 0.05564772 0.025584169 -0.10253174 0.01595624 -0.08285349 -0.109443575 0.15369721
0.030316327 0.14697431 0.15623532 -0.01398927 -0.05487863 -0.111928985 0.106359616 0.02103094
-0.06952278 0.04418476 -0.08154161 -0.06454179 -0.055306617 -0.14645952 0.12939887 0.024370657
-0.03967117 0.0438433 0.13359249 0.008970921 -0.12821972 -0.010264095 0.044815354 -0.018397875
-0.115651645 -0.06174824 0.15691185 0.055144913 -0.061162855 0.13261622 0.015388285 -0.039257944
-0.20959598 0.04615953 -0.072216325 0.12526087 -0.07475789 0.1485373 -0.059101667 -0.019172505
-0.21173228 -0.0011095443 -0.11555814 -0.12229763 0.0723017 -0.12307101 0.093705125 -0.12983273
-0.118942186 0.16577935 0.17642213 -0.10756177 -0.16600265 -9.737625e-05 0.08764823 -0.06977574
0.06796126 -0.034334224 0.058866624 0.07550369 0.032098614 0.06520382 0.009881602 0.056859765
-0.07096274 -0.14820011 0.1751534 -0.088244535 -0.032725215 -0.08519613 -0.029534694 -0.09005668
-0.21957786 -0.11525178 -0.088047706 0.19119231 -0.029507235 -0.009256544 -0.0634423 0.029079724
0.06040206 -0.13370939 0.11145047 0.05164163 0.06912825 0.012886175 -0.002182094 0.03890513
0.005545792 -0.02188338 -0.06885215 0.10560953 0.11073973 0.03622617 -0.0026877043 -0.06286358
0.056597088 0.060975775 0.06374695 -0.068376176 -0.11450309 0.04368536 0.051000644 0.04794845
-0.043657403 0.22824268 -0.041310452 0.050113782 -0.13292605 0.10580397 -0.04743531 -0.01760658
-0.046848748 -0.08277514 -0.19530167 -0.08076177 -0.048590347 -0.17414013 -0.09289499 0.10830558

fc1.bias f4 [64]
00000000: 31b2 853c 3a0b 823c befc 01bd e87d c5bd
00000010: 7023 8f3d 28dc 4b3d 1ca7 133d e4ed b93d
00000020: 12ce 9a3b 9e2f 883c fe88 a5bd 02ad 88bc
00000030: 9f6b e43c ed2b f53d d758 ca3d f6eb f53d
00000040: f591 ca3c d885 babc d0f8 30bc 047e 3bbd
00000050: 944e f33d 6433 bc3d d408 0cbd 1049 9cbd
00000060: 3719 283d 5213 fbbd 8b93 28bd 80ed fa3d
00000070: f834 dc3d dd70 43bd 5c89 fb3d b369 133e
00000080: 6d94 1e3e 85d1 063d 5f59 ba3d 040d f13d
00000090: ac6d 80bc 9940 8fbd 7909 223d 830c 043e
000000a0: 7af9 8e3d 4a8d 7fbd 0027 e63c e64b 673c
000000b0: 685d 0a3d ab5e a23d 1911 35bd 52b6 d23d
000000c0: 0b91 693d e290 69bd 1eb5 9a3d fd45 48bc
000000d0: 605d 48bd 14c9 22bd ec6d 943d e0bf 63bd
000000e0: 275e e4bd ca2e b43d 1b56 16bc 820c 883d
000000f0: eade 9dbd 4eb3 b13d 9754 9cbd 53e6 c5bc
0.01632032 0.015874494 -0.031735174 -0.09643155 0.06989181 0.049770504 0.03604804 0.09078577
0.0047242725 0.016624268 -0.0808277 -0.016684059 0.027883349 0.11971269 0.09880226 0.120078966
0.0247278 -0.0227689 -0.010801509 -0.045774475 0.11880222 0.091894895 -0.034188107 -0.07631123
0.04103967 -0.122595444 -0.041156333 0.12252331 0.107522905 -0.047715057 0.122820586 0.1439579
0.15486307 0.032914657 0.090990774 0.11770061 -0.015677296 -0.06994743 0.039559815 0.12895398
0.06981178 -0.062390603 0.028094769 0.014117217 0.033780485 0.07928213 -0.04420576 0.10288681
0.05702309 -0.057022937 0.075540766 -0.012223718 -0.048917174 -0.039742544 0.072475284 -0.055602908
-0.11150771 0.08797987 -0.009175803 0.06643011 -0.07708533 0.08676778 -0.07633322 -0.024157679

fc2.weight f4 [18, 64]
00000000: 193b a1bd 341c 5b3e 9def 4f3c 8e6c 0e3e
00000010: 41c0 3abe 462d e13d 0dfe bfbd a10c 6cbe
00000020: 85b9 573d 06a2 ae3d 65f0 d7bd a755 8c3d
00000030: feef 06bd 6f90 ef3c 0860 ac3c 20dd e33c
00000040: d4e9 da3d 10c1 613d 8722 9ebd aa51 babd
00000050: 8e1d a4bd 4c58 073d 1864 88bc 9e85 4abe
00000060: 511d 6e3d 2896 efbb cca6 2f3e 83c1 dcbd
00000070: 2f2f 33be 074c 463d d661 99bd 7c41 e03d
00000080: 2320 b43d af3e a4bc 4ace c43d b353 c53d
00000090: 6b9b a3ba 8ae4 a73d ba69 523d 61fb 07bc
000000a0: 3e9c b93d d1d0 65bd 7bd1 3e3c 008b 1c3d
000000b0: 32f9 b83d 9d72 2ebd 0f7d a5bd b3d8 d93d
000000c0: 0112 d5bd 3913 90bd 4673 14be 704e 343d
000000d0: 282f f4bd a7d4 c1bc b9ef 04bc 0eab 05be
000000e0: bcf4 293e 536a ce3d f389 8fbd 107a 37bd
000000f0: 0654 3fbd 4670 d9bc 5521 233c 21a2 81bd
00000100: 3fd4 013e de7a a5bd 36fe 03be 8669 fd3d
00000110: d7d6 0dbe 9304 2d3d 26bc ddbd 8aa9 033e
00000120: 2374 54be d3ba 11be ab4a e03d 8a09 3ebc
00000130: b81e 00be a4f7 19be 8197 143d 8112 18bd
00000140: ba6c dabc fe2f cebd bb61 5bbe 54d3 7ebe
00000150: 99ad 5cbc 3e92 c0bd 9a4e 683d b4f5 80bd
00000160: 2be7 f6bd 0797 23be 82f1 22be d7ae 443d
00000170: 89fc 9ebd 784d ab3d 3400 08be eae9 2fbe
00000180: b9fa 00be c1e0 903d 6718 923d 1bf1 68bd
00000190: 0f43 7a3d f1e9 d4bd b4e3 acbd 216b fc3c
000001a0: 3a98 f9bb 4dd6 733d f494 76bd c546 3b3d
000001b0: eb3f c13d 9ee0 353d d4ad 0f3e a8cb 853d
000001c0: 917a 14be d550 073a 0f71 1a3d bd09 cc3d
000001d0: ec0a 71be 550a 7e3c 3f45 0f3e a378 7ebe
000001e0: acf6 933d 2d9b 873d 01ef 29be 2257 cebb
000001f0: a835 97bd 8d43 92be 3144 38bd 21e9 85bd
00000200: ede0 d7bd b41c 4dbd 44fa 2f3e 423e d9bc
00000210: e928 71bd e3ac 713c 5545 953d c063 02bb
00000220: cfb3 d03d 8c69 eebd fa4f 4ebc fd46 bcbb
00000230: 54f9 87bd 9ae9 e63c 8561 6ebd 2a98 283e
00000240: 7037 063e f2e6 af3d 0aa0 aa3c 57ca 3fbb
00000250: 8560 b73d 0a69 d93b 1e6d 103d 42fb c3bc
00000260: 0d5d 1f3d 343b b83d 3370 f23b c02f 32be
00000270: c357 993d 976f 1cbe 432c 74bd 8902 bd3c
00000280: e3a9 aabc 3950 c2bb cf47 a3bd f3aa 743d
00000290: 59b7 adbb 6a33 d6bd 2fea 073e 640c 133d
000002a0: de46 ca3d 02f0 f4bc 9ca0 cfbd e455 96bd
000002b0: 8aae 59bd 5510 05be 0d96 5dbe d315 db3c
000002c0: cd40 233e 71e4 e23d c15a 24be 0f5b db3c
000002d0: e9b8 b8ba de5b 10bc 2837 ff3b 2817 d6bd
000002e0: 7cb8 12bd 1045 4a3d b523 d23c 4f30 2abd
000002f0: 165f 5ebd ec46 a93d 1fe2 35bd 6432 ee3d
00000300: 1119 883c e4f8 14be 09f4 47bd 5b9e abbd
00000310: 26ce 91bd 7842 97bc 6ec8 2d3d 5836 9dbd
00000320: 600f 823d fa44 243b b04d 37bd 26b2 babd
00000330: 8112 383d b6d7 b93d 70a0 1dbe 2051 983c
00000340: 8e43 5d3d 4bc9 3bbd ecc7 d03d 3d1b 173e
00000350: fdc0 bcbd 5948 e1bd 1797 10be 7381 8dbc
00000360: e60a e4bd f0a9 21bd be13 883d 7e48 babe
00000370: affc 9c3d c81e 48bb 65c7 b1bd 24c8 893d
00000380: d7cd 2fbc 8e7f ffbd d578 ccbc 9a9a 3ebd
00000390: efee 99bd ee33 e4bd 4bd9 65bd 5d77 1d3e
000003a0: 8fbd c03d a42c b2bd 1cfa bfbc 38de 53bd
000003b0: c03a 55bd aac5 d6bd 87dd 22be 6ee7 a13d
000003c0: 9c0e 50bd edde 19bc 5bc6 e2bc 7b28 77bc
000003d0: c3e3 233c 2461 60be dec0 b33d 02f6 e0bc
000003e0: d648 2dbd 81bc 5fbd e5a8 5dbb ed6f 3e3d
000003f0: 36f2 343d d20c 2e3d e1b4 c8bd 4d93 7e3c
-0.078726 0.21397477 0.012691406 0.13908598 -0.18237402 0.10994963 -0.09374628 -0.23051693
0.05266716 0.08526997 -0.105438985 0.068522744 -0.032943718 0.029243676 0.021041885 0.027815402
0.106891304 0.05511576 -0.07721429 -0.090976074 -0.080134496 0.03304319 -0.01664929 -0.19777533
0.058133427 -0.007311601 0.17153472 -0.10779097 -0.17498468 0.04841235 -0.07489364 0.1094999
0.08795192 -0.020049421 0.09609659 0.09635105 -0.0012482231 0.08197887 0.05137036 -0.0082996795
0.09063004 -0.056107346 0.011646624 0.0382185 0.09031905 -0.042589772 -0.08080494 0.10637035
-0.104038246 -0.070349164 -0.14497098 0.044020116 -0.11923057 -0.02366097 -0.008113795 -0.13053533
0.16597265 0.100788735 -0.070087336 -0.044794142 -0.04671099 -0.026542794 0.009956677 -0.06329752
0.12678622 -0.08080076 -0.12889943 0.123736426 -0.13851486 0.04224069 -0.10826902 0.12857643
-0.20747428 -0.14231424 0.10951742 -0.011598954 -0.12511718 -0.15035874 0.036277298 -0.03712702
-0.026663173 -0.100677475 -0.21424 -0.24885303 -0.013469123 -0.094028935 0.056715585 -0.06296864
-0.120558105 -0.15975581 -0.1591244 0.048018303 -0.07763011 0.08364385 -0.13281327 -0.17179075
-0.12595643 0.070741184 0.07133561 -0.05687056 0.06109911 -0.10396183 -0.084418684 0.030812802
-0.007617024 0.059530545 -0.060200647 0.045721788 0.094360195 0.044403665 0.14031154 0.06532985
-0.1449988 0.0005161886 0.037705477 0.09962795 -0.23539323 0.015505393 0.13991259 -0.24850707
0.07224783 0.06621394 -0.16595079 -0.006297008 -0.07383281 -0.28567162 -0.044986907 -0.065386064
-0.10540948 -0.0500762 0.17185313 -0.026518945 -0.058876906 0.014750692 0.07288615 -0.0019895881
0.10190546 -0.11641225 -0.01259231 -0.005745767 -0.066393524 0.028187562 -0.05819847 0.16464296
0.13107085 0.08588971 0.020828266 -0.002926489 0.089539565 0.006634836 0.035260312 -0.02392352
0.0389071 0.08995667 0.007398629 -0.17401028 0.07487442 -0.15276943 -0.059612524 0.023072498
-0.020832961 -0.0059299734 -0.07972681 0.059733342 -0.0053013978 -0.10459025 0.13272928 0.03590049
0.09876798 -0.0298996 -0.10138056 -0.07340601 -0.05314497 -0.12994511 -0.21639271 0.026743805
0.15942688 0.11078728 -0.16050245 0.026776819 -0.0014093193 -0.008810965 0.0077885576 -0.104536355
-0.03582047 0.04938227 0.025651792 -0.041549977 -0.0542899 0.082654804 -0.0444051 0.11630705
0.016613515 -0.14548069 -0.048816714 -0.08379813 -0.07119398 -0.018464312 0.042427473 -0.07676381
0.06350589 0.0025065527 -0.044751823 -0.0911601 0.04493952 0.09074347 -0.15393233 0.01859337
0.054019503 -0.045846265 0.10194382 0.14756484 -0.09216497 -0.11000127 -0.14120136 -0.01727364
-0.11134891 -0.039468706 0.066443905 -0.36383432 0.07665383 -0.0030535925 -0.086806096 0.06727627
-0.010730228 -0.12475501 -0.024959961 -0.04653416 -0.07516276 -0.11142717 -0.05611543 0.15377565
0.094111554 -0.08699921 -0.023434691 -0.051725596 -0.05205798 -0.1048692 -0.15904818 0.0790547
-0.050795183 -0.009391529 -0.027682474 -0.015085335 0.010003033 -0.21912056 0.08777021 -0.027461056
-0.04230579 -0.05462313 -0.0033822593 0.04649346 0.044176303 0.042492695 -0.09800125 0.015538049

fc2.bias f4 [18]
00000000: 13ff 3b3d 52f7 4dbc 6836 e1bd 8b66 ac3b
00000010: 87fb 91bd 55e9 2dba ff98 90bd bc95 883d
00000020: 490f 18bd bdcf 9fbd fefc 74bc 0f39 7f3d
00000030: bc26 00bd 92ba 9e3d 8bcb 1dbe 6605 ae3c
00000040: 188f 183e 58e6 ac3d
0.045897555 -0.012571173 -0.10996705 0.0052612475 -0.07128053 -0.00066341955 -0.07060432 0.066691846
-0.037123952 -0.07803295 -0.014952896 0.062310275 -0.03128694 0.07750429 -0.15409677 0.021242809
0.14898336 0.08442372
