RNN/model_storage/ch7/model1_unconditioned_surname_generation/model.pth (torch, 50670 bytes, 7 tensors)

char_emb.weight f4 [88, 32]
000000 00 00 00 00 00 00 00 00 00 00 00 00 00 00 00 00
       0.0 0.0 0.0 0.0
000010 00 00 00 00 00 00 00 00 00 00 00 00 00 00 00 00
       0.0 0.0 0.0 0.0
000020 00 00 00 00 00 00 00 00 00 00 00 00 00 00 00 00
       0.0 0.0 0.0 0.0
000030 00 00 00 00 00 00 00 00 00 00 00 00 00 00 00 00
       0.0 0.0 0.0 0.0
000040 00 00 00 00 00 00 00 00 00 00 00 00 00 00 00 00
       0.0 0.0 0.0 0.0
000050 00 00 00 00 00 00 00 00 00 00 00 00 00 00 00 00
       0.0 0.0 0.0 0.0
000060 00 00 00 00 00 00 00 00 00 00 00 00 00 00 00 00
       0.0 0.0 0.0 0.0
000070 00 00 00 00 00 00 00 00 00 00 00 00 00 00 00 00
       0.0 0.0 0.0 0.0
000080 a7 c0 29 bf 26 a7 80 be 6d 4c 81 3f 81 ed f8 3d
       -0.6630959 -0.25127524 1.0101448 0.12154675
000090 70 33 22 3e 87 27 91 3f eb b2 93 bf 78 c7 98 be
       0.15839934 1.1340188 -1.1538976 -0.29839683
0000a0 ea ed 01 bf 19 86 6c bf ee f4 0b 3f df 54 bf bf
       -0.50753653 -0.92392117 0.5467061 -1.4947776
0000b0 dd 54 9a bf c9 62 12 3f 39 ec 18 bf bb 94 31 bf
       -1.2057148 0.57181984 -0.5973545 -0.6936757
0000c0 03 a1 d2 3f f5 90 4d bf 08 fb ac 3f 4d 45 8d be
       1.6455387 -0.8029931 1.3514109 -0.27591935
0000d0 07 63 c1 bf 9a b4 06 40 52 d4 30 40 45 8e df bf
       -1.5108346 2.104773 2.762959 -1.7465292
0000e0 b5 cd b9 3f f5 50 c1 bf 22 37 52 3f 99 9a 58 be
       1.4515902 -1.5102831 0.82115376 -0.21152724
0000f0 e1 65 47 3f 27 42 c4 3f d8 0b ce 3f eb 73 ce be
       0.7788983 1.5332688 1.6097364 -0.40322813
000100 19 8c 84 bf 4e 40 23 3f 79 06 52 be 07 60 96 bc
       -1.0355254 0.63769996 -0.20510282 -0.018356336
000110 bf 28 0f bf 83 ff f8 3e ae 1d 82 be ee 16 b8 bf
       -0.5592155 0.4863244 -0.2541327 -1.4381998
000120 0f 16 14 40 ea b7 0a bf ac 42 a5 3e 22 f9 6b 3f
       2.3138463 -0.5418688 0.3227743 0.9217702
000130 39 3e c9 bf f4 14 a0 3f 5e b0 e4 3e c1 c7 90 3e
       -1.5722114 1.2506394 0.44665807 0.282774
000140 57 0a 38 40 50 3f c4 bf f8 32 a2 3f a3 ee 54 3f
       2.875631 -1.5331821 1.2671804 0.8317663
000150 07 df e8 bf 36 6a cb bf 64 ea 5b 3f e6 72 9a be
       -1.8193063 -1.5891788 0.85904527 -0.30165786
000160 80 fc 18 3f e7 04 26 bf f6 5f 4d 3f b0 92 4b bf
       0.59760284 -0.6485123 0.8022455 -0.795207
000170 3a 7a f0 be 22 c7 e1 be 94 2b a6 bf e2 4e 21 bf
       -0.4696825 -0.4409724 -1.2982049 -0.6301099
000180 31 5e d5 bf 08 bd ae bf 26 7f 29 be 1e 56 76 3f
       -1.666937 -1.3651438 -0.1655241 0.96225154
000190 69 39 01 3d 43 ed 3d bf e0 77 98 be 03 9f 8c 3c
       0.03154889 -0.7419016 -0.29778957 0.017165666
0001a0 2f 7a 35 be bf a1 08 be 94 81 96 3e 2d 46 b1 3f
       -0.1772239 -0.13342951 0.29395735 1.3849541
0001b0 1c a1 f7 3d a4 ac 22 40 30 f5 23 bf 60 ac fc bf
       0.12091276 2.5417871 -0.64046 -1.9740105
0001c0 4d bd a8 be d7 65 02 3c b9 1d 6d 3f 1e 39 f1 bf
       -0.32956925 0.007958851 0.9262348 -1.8845556
0001d0 fb f7 2a 3e 8c d0 ea 3e 0e 13 e2 bf 31 03 16 3f
       0.1669616 0.45862234 -1.7662065 0.5859862
0001e0 cd 21 e0 3f d0 ba 8f 3e 90 36 9f 3e b0 5c 27 bf
       1.7510315 0.28072214 0.31096315 -0.65375805
0001f0 33 5a 28 bf ce 0b a3 3e b3 b1 0c bf a5 82 bb bf
       -0.65762633 0.31844944 -0.5495865 -1.4649245
000200 61 83 0a c0 24 49 f5 3f c6 f7 8d 3f 89 38 f4 be
       -2.1642687 1.9162946 1.109124 -0.47699383
000210 cf 35 93 3f ad 83 e9 3f b6 b5 84 be 5b 98 bf bf
       1.1500796 1.8243309 -0.25919884 -1.496837
000220 99 81 bf bc 38 77 32 be ae 15 58 3f 64 34 07 3f
       -0.023377227 -0.17428291 0.8440808 0.52814317
000230 01 89 72 3e 3e 70 67 bf 94 ad 2b 3f 82 37 2f 3f
       0.23685075 -0.90405643 0.67061734 0.68444073
000240 8d a8 15 40 74 ec 77 3f 62 52 cc bf 8b 03 fa be
       2.3384125 0.96845174 -1.5962641 -0.48830828
000250 b2 9f 83 be a0 d9 b4 be b6 a9 86 bf ab 60 ab 3f
       -0.25707775 -0.35322285 -1.0520542 1.3388876
000260 bc 46 63 bf ff d1 98 3e 09 3d 87 3f 43 f5 19 be
       -0.8877981 0.29847714 1.0565501 -0.15034966
000270 d7 cd b3 bf c4 a5 40 bf b2 5e b9 3f e5 f2 ce be
       -1.4047192 -0.7525294 1.4482024 -0.4041969
000280 7b be 96 bf c7 a7 ad 3e aa 9f d1 be f1 44 1e 40
       -1.177688 0.33917066 -0.40942127 2.4729578
000290 9b 32 45 c0 16 46 9a 3e 25 f0 62 bf ad 12 9e be
       -3.0812137 0.30131596 -0.8864768 -0.30873623
0002a0 5b a3 69 3e b0 9e 00 40 c0 f7 c9 be 4b be 96 be
       0.22816221 2.0096855 -0.3944683 -0.29442057
0002b0 28 0f b2 bf dc 20 69 3c 48 f6 04 c0 c3 5d c8 bf
       -1.3910875 0.014229026 -2.0775318 -1.5653614
0002c0 bf 7e 11 be 83 29 a0 bf ad 5c 3c 3e b4 89 e8 3d
       -0.14208506 -1.2512668 0.18394728 0.1135439
0002d0 33 5d f2 3e bd 56 1c 3f 30 18 cc bf 26 a7 94 3f
       0.4733673 0.6106985 -1.5944881 1.161351
0002e0 be 85 93 3f bc af a6 3f 3d a9 27 3f f2 ef 82 bf
       1.152519 1.302238 0.6549261 -1.0229475
0002f0 bb e4 69 bf bd ae 12 40 ff f4 b4 3e 46 89 be 3f
       -0.9136464 2.2919152 0.35343167 1.4885643
000300 ad dd 04 bd 57 c2 e2 be 17 3e f8 3f df 2f ac 3f
       -0.03243797 -0.44288895 1.9393948 1.3452109
000310 85 e2 61 3f 78 4c 02 bf 4c 08 c0 be 1b 62 f1 3e
       0.88236266 -0.5089793 -0.3750633 0.4714516
000320 66 fd 21 3e cd df ec bf ec 92 9f 3f 64 cc 06 3f
       0.1581932 -1.8505799 1.2466712 0.52655625
000330 9b e5 9e bf a5 d3 67 bf 49 6a 0a bd 88 77 b1 3d
       -1.241382 -0.9055732 -0.033792768 0.08665377
000340 41 43 fb 3e 2f d8 36 bf 68 cd 61 be dc a2 e0 be
       0.49074748 -0.7142362 -0.22051013 -0.43874252
000350 41 7e df 3e b4 11 31 3f e8 2c b0 3f 89 d7 4f 3f
       0.43651012 0.6916764 1.3763704 0.81188256
000360 b7 e5 36 3f ae 7b 67 3f a3 de 0c bf f1 49 4a bf
       0.7144427 0.90423095 -0.55027217 -0.79019076
000370 30 72 56 bf 5c 93 bc 3e 34 2e 3e bf 57 01 36 be
       -0.83767986 0.36831176 -0.7428925 -0.17773949
000380 16 03 54 bf ef ab 04 be 82 d9 73 be 37 f2 9e be
       -0.8281721 -0.12956212 -0.23813441 -0.3104417
000390 64 df b6 be a0 ca 4c 3f 98 27 dc bc 4d 2c 9e be
       -0.3571731 0.7999668 -0.026874349 -0.30893174
0003a0 2a 7d 88 3f 1e 77 d7 bf 49 50 a7 3e c8 45 0f c0
       1.0663197 -1.6833227 0.3267844 -2.238634
0003b0 41 f1 81 bf da 7b b6 3d 89 ef 48 bf f6 5b ed be
       -1.015175 0.089103416 -0.784905 -0.46359223
0003c0 19 c5 d6 3f 83 7e 1a be 88 d2 53 bf 2f 45 8c bf
       1.67789 -0.15087323 -0.8274312 -1.0958613
0003d0 06 d4 03 3e 97 04 fb be c6 f4 38 be 03 5b a1 bf
       0.1287385 -0.4902694 -0.18062124 -1.26059
0003e0 99 04 87 be 78 fc bd 3e 25 ea 8e bf 11 49 99 bf
       -0.26370695 0.3710668 -1.1165205 -1.1975423
0003f0 ec bd 66 3f 27 b7 e3 bf 50 ee 03 bf b0 04 ac 3f
       0.9013355 -1.7790269 -0.5153551 1.343893

rnn.weight_ih_l0 f4 [96, 32]
000000 cc e9 6d be 0b ca e2 3e c2 a8 f5 be 62 56 05 bd
       -0.23233718 0.44294772 -0.47980314 -0.032553084
000010 b9 a6 0e be d3 ec 05 3e fb 65 94 be 42 b4 49 bc
       -0.13930787 0.13078623 -0.28984055 -0.012311043
000020 dc 1b 06 3d 77 dd 3f 3e 5d 0c 95 be 8d 3b 5e bc
       0.032741413 0.18736826 -0.29110995 -0.013564003
000030 82 a2 9d bd 05 5a b1 3e ed e0 00 be 75 81 44 be
       -0.076970115 0.34638992 -0.12585802 -0.19190009
000040 3a 46 32 3e 45 03 81 3e 63 74 40 ba 4e fd a6 bd
       0.17409602 0.25197807 -0.0007341562 -0.08153783
000050 5b cc 46 3e 89 70 05 bf 15 52 bb bd f3 c1 c3 3d
       0.19413893 -0.5212484 -0.09146515 0.09558477
000060 cb 91 e2 bd c5 ed d9 3d 11 e0 a8 3e 08 6c 7d bd
       -0.11062964 0.10641054 0.3298345 -0.061870605
000070 55 b7 37 3e fc 77 1c 3d f8 5f 1c bd c0 38 71 3d
       0.1794103 0.038200364 -0.03817746 0.05889201
000080 20 af f2 ba 99 dd 8f 3d e0 86 84 3e ac 18 2d be
       -0.0018515326 0.07024688 0.2588415 -0.16903943
000090 f4 ed 8b 3e cd a9 c2 3d f1 38 23 be f5 22 56 3e
       0.2732998 0.09505043 -0.1593969 0.20911773
0000a0 cb c6 91 3d 8f 1e 9d 3d 9e a5 76 3e 2c 80 39 3e
       0.07117995 0.07671844 0.24086615 0.181153
0000b0 7d b0 08 be 54 6a 87 be 23 f4 ef 3d 13 c1 ed 3c
       -0.13348575 -0.2644831 0.11716487 0.029022729
0000c0 92 b2 e6 3d c3 69 50 3e b8 12 ab 3e c5 5c 83 be
       0.11264528 0.20352845 0.3341272 -0.25656715
0000d0 f6 69 19 3e ca d8 b4 3d 40 81 7e 3e a7 2f 44 3e
       0.14981827 0.08830412 0.24853992 0.19158803
0000e0 a8 c1 de bd 41 fd cf be 95 ed e7 bc 5b 49 2a be
       -0.10876781 -0.40622905 -0.02831153 -0.16629545
0000f0 f4 d0 68 3e 5f 87 42 be 21 8c d3 3c 0e 1e dc bd
       0.2273596 -0.18996952 0.025823655 -0.1074792
000100 b8 83 e0 3c 8b af 53 3e 98 b3 7b bd 51 9d bb 3e
       0.027406558 0.20672433 -0.06145057 0.3664346
000110 33 e5 9c bd b6 79 23 be 9c 11 e1 3e 3c 9f 28 3c
       -0.07660904 -0.15964398 0.43958747 0.010291871
000120 da ce ea bd ff 51 cc bd df 67 dc 3d cb 46 b6 3c
       -0.11465235 -0.09976577 0.10761999 0.022250554
000130 0d 5b 6e be ed 15 cd be 82 d3 4d 3e 14 17 bb 3d
       -0.2327692 -0.4005579 0.20100215 0.09135261
000140 5e af 44 bd 70 17 21 3e 46 c7 62 be d3 dc e9 bd
       -0.048018806 0.15731597 -0.2214633 -0.11419072
000150 16 6c ae bc bc 14 01 3e d8 a0 f7 3d e8 24 2a 3e
       -0.021291774 0.12605566 0.120912254 0.16615641
000160 aa 78 3a 3e ec 3d c4 3d de 2b c3 bb 9b 46 7c be
       0.18210092 0.09582123 -0.005956157 -0.24636309
000170 ec e7 26 be b9 5b 68 be ca 29 d0 bd 44 3e 3f 3b
       -0.16299409 -0.2269124 -0.10164221 0.00291814
000180 43 a3 6c 3e 52 b5 cd bc bf 58 93 3d a2 29 53 3e
       0.23109154 -0.025110874 0.07194661 0.2062135
000190 7a 97 b3 3c 60 95 1e bd 48 42 28 be ba ac 84 3c
       0.021922816 -0.038716674 -0.16431534 0.016195644
0001a0 86 5b cc bd 20 15 68 bc f6 f4 07 3e b3 b7 36 be
       -0.09978394 -0.014165193 0.13277039 -0.17843513
0001b0 0e ee 26 be 4e e6 e2 be 27 ac 6b bd 2a 59 97 3e
       -0.16301748 -0.44316334 -0.057537224 0.29560214
0001c0 1c 2f d5 bd 9c 8b 6a be 28 35 6b be c0 0f 9c 3e
       -0.10409376 -0.22904819 -0.22969496 0.30480766
0001d0 74 a0 96 3e 9f 82 42 3e 36 e9 94 bc 29 b1 4d 3e
       0.2941929 0.1899514 -0.01817761 0.20087112
0001e0 a6 80 cd 3d 7e b0 f7 3d 84 a0 fe bd 9e c5 a5 bd
       0.10034303 0.1209421 -0.1243296 -0.08094333
0001f0 e7 ad f2 3c dc 5f d7 bd b2 47 9a 3e 90 3f 20 be
       0.029623939 -0.105163306 0.30132824 -0.15649247
000200 74 a8 40 3c 2f 15 0c 3e 28 f6 6d 3c 14 d6 a6 3e
       0.011758912 0.13679956 0.01452402 0.32585204
000210 92 01 6e be b0 04 42 be 10 25 0e be c2 d1 ac 3e
       -0.23242787 -0.189471 -0.13881326 0.33753783
000220 00 b7 c6 bd 33 c2 31 3c 7e 40 3e be 55 bd 9c 3c
       -0.09702873 0.010849523 -0.1857929 0.01913325
000230 09 23 bb bd f0 03 cb 3d 25 11 48 3d 72 08 5d 3e
       -0.09137542 0.099128604 0.048844475 0.21585253
000240 35 ae 06 3d 21 e4 30 3e 2f 93 52 bd da 0c 34 3e
       0.03288098 0.17274524 -0.051409896 0.17583027
000250 bc 4b 08 be 43 21 25 be cf 37 dc bc cb 0b b2 3d
       -0.1331014 -0.1612597 -0.02688208 0.086936556
000260 ff d8 57 3e c2 8c c1 be 3e 18 a4 bd 7b 8e 60 3e
       0.21078871 -0.37802702 -0.08012436 0.21929352
000270 a1 b9 1f be ef e8 af 3d b7 96 c7 3e 40 5f 60 3d
       -0.15598156 0.085893504 0.38982174 0.054778337
000280 0f 5e 28 bd 16 a8 b6 3d 4b c9 0a bd 23 38 4b 3d
       -0.041105326 0.089187786 -0.033883374 0.049614083
000290 ea f2 e1 3d 03 54 0f 3c d1 fa 8d bd d8 08 87 3e
       0.1103266 0.008748057 -0.06932605 0.26373935
0002a0 1d bc 2e 3e b4 4a 49 be 59 e6 3f 3b 2a 26 21 3e
       0.17063947 -0.19657403 0.0029281585 0.15737215
0002b0 67 92 d4 3d 58 40 72 be ae 48 bc 3d 9b c1 66 3d
       0.103794865 -0.23657358 0.0919355 0.05633698
0002c0 c4 a0 3e 3e 60 7e ff bd 88 15 1d be 94 92 09 3d
       0.18616015 -0.12475276 -0.15340245 0.033587053
0002d0 fa 47 83 3d 79 04 a4 bd 32 67 76 bd f7 b2 70 3e
       0.06410213 -0.080086656 -0.06015701 0.2350577
0002e0 e7 25 91 3e 70 d2 cb bd 21 b4 3b 3e fe 6e c9 3c
       0.2834923 -0.09952247 0.18330432 0.024589058
0002f0 91 4c d7 3c c7 93 7d 3d da ff c5 3e c7 98 8c bc
       0.026281627 0.06190851 0.38671762 -0.017162694
000300 68 af fc 3d f3 51 03 3e 41 fa b2 3d 18 67 72 3e
       0.123381436 0.1282423 0.087391384 0.2367214
000310 06 85 4f bd 94 cf ab 3d b8 fd e4 b9 e2 fa 9e 3c
       -0.05066397 0.08389202 -0.00043676584 0.01940674
000320 04 13 ac 3d 2c 52 d3 bd 43 45 33 3d 49 c9 c0 bd
       0.084020644 -0.103184074 0.043767225 -0.09413392
000330 66 1f 42 be 12 c2 3b be da 3e b5 3c ad 3e b0 3b
       -0.1895729 -0.1833575 0.022124697 0.0053785653
000340 47 e2 6a 3d c8 dc f4 ba 1a 59 74 be d0 70 21 be
       0.0573447 -0.0018681521 -0.23862115 -0.15765691
000350 3e 5e 49 3e e3 b5 2e 3e 81 46 ce bc 2b 81 4a bd
       0.19664857 0.17061572 -0.025180103 -0.04943959
000360 3b c3 20 3d b5 8c 66 be 6f 61 6c 3d e2 a9 60 bd
       0.039248686 -0.22514613 0.057710107 -0.054849513
000370 89 b0 5f be 87 6f 23 be 72 d6 a2 3d e7 27 49 be
       -0.21844687 -0.15960513 0.079510584 -0.19644128
000380 0b 9e 66 3e 65 59 aa 3d 1f d5 94 3e dc 1e f0 3d
       0.22521226 0.08317832 0.29068848 0.11724636
000390 d2 e9 8f 3e 02 23 7d 3b 88 d7 bb bc 75 08 b5 3e
       0.28108078 0.0038625603 -0.022929922 0.35358015
0003a0 cf 5a e9 3d b0 61 9c bd 3d 8c 7d ba 14 36 aa ba
       0.113942735 -0.0763582 -0.0009672081 -0.0012986087
0003b0 c2 21 29 be f7 25 be 3c 6d d1 05 3e 5e 27 28 3d
       -0.16516784 0.023211462 0.13068171 0.04105317
0003c0 a6 5d 17 be bf a2 ea 3c 44 9a 8e bd e9 23 06 bc
       -0.14781818 0.028642057 -0.069630176 -0.008187273
0003d0 ca c6 e7 bc 09 6e 45 bd 84 63 86 3b ef 3d bd 3e
       -0.028293032 -0.04820064 0.0041012187 0.36961314
0003e0 78 ba 4d 3e 7f 4b 07 be ce b8 0a 3d 5b 73 63 be
       0.20090663 -0.13212393 0.03386765 -0.22211973
0003f0 bb a6 df bd 68 00 91 be df b5 1b 3e 9b 02 6e bd
       -0.10920473 -0.28320622 0.15206097 -0.058107954

rnn.weight_hh_l0 f4 [96, 32]
000000 a4 d9 c0 3c 6c 37 6a bd c6 ca b7 bd 93 82 a4 3d
       0.02354128 -0.05718176 -0.08974223 0.080327176
000010 f8 ea b6 bc cd 67 c6 3d ba 38 d4 3c 3f 69 26 bd
       -0.022328839 0.09687767 0.025905956 -0.040627714
000020 85 69 a1 be d9 a4 1b 3d f5 8b 82 bd 34 a0 76 be
       -0.31525818 0.037999008 -0.06374351 -0.2408455
000030 a9 ea d1 3e bf 94 ba 3e a4 09 c1 3d 53 5e 8c bc
       0.40999344 0.3644161 0.09425667 -0.017134821
000040 1d db 48 be 67 8a 97 bc 3b 5c f4 bd 3e c6 2f be
       -0.19614835 -0.018498613 -0.11931654 -0.17165467
000050 66 e3 7f 3d 1f dd 97 be 70 aa c4 3e b2 59 b5 3d
       0.062472723 -0.2966089 0.38411283 0.08854999
000060 7b f6 dd 3c e8 8e 0a 3e 36 ff b4 3e 26 5f c0 3d
       0.02709507 0.13531077 0.3535096 0.09393148
000070 2b 9b 6b 3e b6 b0 0c bd 92 67 5d 3d 9a ef 85 3d
       0.2300841 -0.034348212 0.05405385 0.06539841
000080 60 19 4b 3e 7a 86 c5 3e a4 3f f5 bd e4 e9 59 be
       0.19833899 0.3857916 -0.11975029 -0.21280628
000090 3b ac 8a 3d 45 a8 59 bd ce d8 79 3d 36 a0 0b bd
       0.067711316 -0.05313899 0.060997777 -0.034088336
0000a0 e3 0b 3b 3c 59 d6 9e 3d 91 fd 3a 3e b6 4e 9a 3d
       0.011416408 0.07755727 0.1826079 0.07534544
0000b0 a5 b3 80 3e d6 bb a3 be c8 7c 85 3e b5 6c 31 bd
       0.25137058 -0.31979245 0.26071763 -0.04331656
0000c0 43 3d 6f bc d0 2a 1c 3e f8 40 b0 bd 7d 32 96 3e
       -0.014602008 0.15250707 -0.08606142 0.29335395
0000d0 1e 78 f0 3d e8 ea ed bd e7 5c 0a be d3 93 90 3c
       0.117416605 -0.116170704 -0.13512002 0.017648613
0000e0 a7 95 81 bd 64 31 b0 3d 17 5c 7e bd 9f b7 bb 3d
       -0.06327372 0.086031705 -0.062099542 0.09165882
0000f0 99 b2 e1 3d 1d bd 7d 3d 74 50 fa 3c 10 bc 02 3e
       0.11020393 0.06194793 0.030555941 0.12767053
000100 f9 ac 6c be 38 2d 09 3f 8d 56 81 be 27 fe 24 be
       -0.23112859 0.53584623 -0.25261346 -0.16112576
000110 c8 ae bc 3e 54 c2 22 be 26 93 a4 bc 55 10 0c 3e
       0.36852098 -0.15894443 -0.020089697 0.13678105
000120 12 8f 74 bd 82 6b 71 bd 00 22 8c 3d 86 2a 36 3e
       -0.059706755 -0.058940418 0.068424225 0.17789659
000130 f8 e8 83 bc 18 7e 4c 3e a4 c1 4e 3c 0d 6c b4 bd
       -0.0161023 0.19969976 0.01261941 -0.088096716
000140 2a 16 39 bd ea 4f 83 3d 8e b7 de bd 3b 03 5b 3e
       -0.045187153 0.06411727 -0.10874854 0.21387951
000150 73 04 9d 3e 70 88 ed bd df d6 fb 3e 1b 83 12 3e
       0.30667457 -0.11598289 0.4918737 0.14307825
000160 02 32 90 3c f7 d0 47 3e 1a 1b 6b 3e 05 9b cb 3d
       0.01760197 0.19513308 0.22959557 0.09941677
000170 38 69 96 3e e9 3b 00 3e c8 e6 c6 3d 17 f8 07 3e
       0.2937715 0.12522854 0.09711987 0.13278233
000180 0f b9 dd bd bc 55 a7 bc c8 ba 5b 3e 2c 39 67 be
       -0.10826313 -0.020426624 0.2145797 -0.22580403
000190 56 07 db 3d 47 02 db be 39 8c 54 bc 26 cb 86 3d
       0.106947586 -0.42775175 -0.012972885 0.06581716
0001a0 d3 ec 3d 3d 96 99 24 be 08 47 99 3e 0e 8d e2 be
       0.04636843 -0.16074213 0.29937005 -0.4424824
0001b0 a9 b7 d6 3e c4 30 93 3e 4b 90 7a 3e 1e 60 b7 3e
       0.41936997 0.28748143 0.24469106 0.3581552
0001c0 51 2e 8a 3b d2 ee dc bd 5a fb 31 3d 83 1d 05 bd
       0.004216947 -0.10787739 0.0434526 -0.032498848
0001d0 c0 aa 99 3d 5b 85 b9 3d 5f 49 96 be fd ea 17 3e
       0.07503271 0.09058639 -0.29352853 0.14835735
0001e0 d8 ea d1 3d 5c 1b 70 3e 8f 29 93 3e 78 f0 94 3c
       0.10249871 0.23447937 0.28742644 0.01818107
0001f0 00 3b 68 3e db 7d 4e 3e ad 14 7d 3c e4 c9 72 be
       0.22678757 0.20165198 0.015446824 -0.23709828
000200 4e fd 85 3d ba 05 90 3e b9 47 c7 3d 84 3d 18 be
       0.06542455 0.2812937 0.09730477 -0.14867216
000210 93 e0 ed 3e 11 af 43 3d 56 67 ad bd 8f 03 90 bd
       0.464604 0.04777438 -0.084669754 -0.07031929
000220 74 a2 84 bd 5d 99 b1 3d bc 35 f5 3b 61 01 12 3e
       -0.06476298 0.0867183 0.0074832123 0.14258339
000230 2d 68 a2 be f2 ee c9 be 92 88 49 3c cc 76 46 3b
       -0.31720105 -0.39440113 0.012300627 0.003028321
000240 d6 08 8a bd 42 f0 7c be 2c e5 93 bc a5 12 c0 3d
       -0.067399666 -0.24701026 -0.018053614 0.09378556
000250 f5 22 ee bc d6 e1 ce be 1d 38 75 3d 8d b8 f7 3d
       -0.029069403 -0.40406674 0.059867967 0.12095747
000260 45 fd 7c 3c 00 94 00 bd bf 5c c8 3d c0 6c ad bd
       0.015441244 -0.031391144 0.09783315 -0.08468008
000270 48 0c 61 3e d6 17 34 3e 5b 50 12 3d a3 1f 7c bb
       0.21977341 0.17587218 0.035721164 -0.0038471005
000280 3d fb 81 3d 3c 5a 8f 3e 3a aa cf 3d 6b 16 35 bd
       0.06346748 0.2799853 0.1013989 -0.044210833
000290 5a 09 f5 bd bb 1d 19 3e 29 34 e2 3c 6a a4 6c bd
       -0.11964674 0.14952748 0.027612763 -0.057773985
0002a0 c3 35 ab 3d 22 81 a3 3c 7d 91 20 bb af 26 38 3e
       0.083598636 0.019959036 -0.002450078 0.17983507
0002b0 54 97 29 3e b1 03 fd 3d cd ed 91 3d 19 f3 1a 3e
       0.16561633 0.1235422 0.07125435 0.15131797
0002c0 42 c8 18 bd 80 9a ab bd 66 3f 45 bd b3 5e c8 3d
       -0.037300356 -0.08379078 -0.048156165 0.097836874
0002d0 7b 67 6e 3d 81 a0 6a bd dd 39 f1 be f2 91 8c be
       0.058204155 -0.057281975 -0.4711446 -0.27455097
0002e0 a6 8c a4 bd c6 2a c8 3c dd 95 86 3e 16 7b 1f be
       -0.08034639 0.024434458 0.26286212 -0.15574297
0002f0 b7 c0 08 3e 33 eb 48 3e d7 ed 23 be 88 e0 63 bd
       0.13354765 0.19620971 -0.16008697 -0.05563405
000300 bd 35 66 bc fb 71 4b 3e 14 f8 0b 3e f7 73 c1 bd
       -0.014050898 0.19867699 0.13668853 -0.09445947
000310 97 c0 df 3d 2c 6b 08 3e 45 f7 6b bd d6 97 93 3d
       0.109254055 0.13322133 -0.05760886 0.07206695
000320 f6 12 82 3e db 81 5c 3e 83 0c 83 3e bb 2e 9e be
       0.2540509 0.21533911 0.25595483 -0.30895028
000330 70 fd 8a 3d 10 80 07 3c 1d 43 11 3e c5 5f 60 be
       0.067866206 0.008270279 0.14185758 -0.21911533
000340 11 1c af bd a6 df fd bd 67 74 2d be 89 52 89 3d
       -0.08550275 -0.12396173 -0.16938935 0.067051955
000350 c1 9e 3c bd 03 d9 71 be dd af 05 be 60 40 39 3e
       -0.046049837 -0.2361794 -0.13055368 0.18090963
000360 14 8d 2f 3e a7 e3 d1 3d db c9 52 3e 52 ab 1e be
       0.17143661 0.10248499 0.20584814 -0.15495041
000370 4e 14 98 3e cb 6b 9e 3d d3 1e 08 3e 80 64 be bd
       0.2970299 0.077354036 0.13293009 -0.092965126
000380 c9 e0 a6 be f4 91 e2 3d 54 0e fc 39 39 c9 6f 3d
       -0.32593372 0.110629946 0.0004807586 0.05854151
000390 1f 49 b6 3d d7 d8 52 be ab 6d 75 be 34 b7 2a 3e
       0.089006655 -0.2059053 -0.23967616 0.16671449
0003a0 5c 6e 1a bc f0 a3 ca bd 9a 93 43 3e f2 b6 91 3d
       -0.009425726 -0.0989455 0.19099274 0.07114972
0003b0 7d a2 a5 bb 1b e2 42 3d 7c 0c dc 3c 3c 98 db be
       -0.0050547705 0.047578912 0.026861422 -0.42889583
0003c0 96 9e 2d bc 4d f0 8e be 1d 55 2d be 8a b7 3a 3e
       -0.010596892 -0.2791771 -0.16927 0.18234077
0003d0 c6 de 0b bd 7d b8 48 be 60 0c cf 39 31 f5 16 bd
       -0.034148 -0.19601627 0.00039491337 -0.036854926
0003e0 89 75 00 3d eb d4 f9 3c 93 85 1c 3d c8 3e ce bc
       0.03136209 0.030497035 0.038213324 -0.02517642
0003f0 ed 68 f0 3d cc 5d 56 3e 97 60 99 3c 12 ef f4 3c
       0.11738763 0.20934218 0.018722815 0.029899154

rnn.bias_ih_l0 f4 [96]
000000 5d 75 89 3e 1b 4a 7a bd ce 8a 21 3d ae 4b 61 3d
       0.26847354 -0.06110583 0.039439015 0.055003814
000010 a2 4f e0 bd 97 2a b1 bc 9a 41 64 3e e1 8f 54 3e
       -0.10952689 -0.021626754 0.2229065 0.2075801
000020 b6 d3 85 bd 95 07 66 3d 8a 9b c4 bd 83 b2 86 b9
       -0.06534521 0.056159575 -0.09599979 -0.00025691473
000030 e7 71 8b 3d 7e 4e 66 bd 03 21 53 3d 98 2b d0 bb
       0.068088345 -0.0562272 0.051545154 -0.006352853
000040 73 4d e7 3d ee 6b 55 3e 28 e7 4b 3e fd 47 d3 3d
       0.11294069 0.20841953 0.19912398 0.10316465
000050 d8 78 43 3e b9 98 68 3e 8d 9e 9e 3d 2d 87 2e ba
       0.19089067 0.22714509 0.07745085 -0.0006657716
000060 48 1c 56 3e ad 51 5f 3e 4d a4 2c 3e 28 2e 99 3e
       0.20909226 0.218085 0.16859551 0.29918027
000070 d7 40 1a 3e 20 78 a5 3e a0 b7 0a 3d ef 7d 2e 3e
       0.15063797 0.3231821 0.033866525 0.17040227
000080 5c b1 66 be dd e6 09 be b2 97 d2 be 7f be ec bd
       -0.22528595 -0.13466974 -0.4113136 -0.11559772
000090 2c f6 a2 3d 6b bf 33 be 62 bb 84 be a5 0e 01 be
       0.0795711 -0.17553489 -0.25924212 -0.12603243
0000a0 30 cb 8d be 96 82 dd be f0 80 50 be 19 e1 61 bd
       -0.27694082 -0.43263692 -0.20361686 -0.05514631
0000b0 cc 1a be be f8 a7 af be 8f 77 95 bd 31 76 ac be
       -0.3712982 -0.34307837 -0.072981946 -0.33683923
0000c0 ba 43 43 be 76 fa bd bd 1e d8 aa bd 4a 18 b6 bd
       -0.19068804 -0.09276287 -0.08342002 -0.088913515
0000d0 56 56 9c be 80 7f 64 be 11 73 86 3c 56 31 37 be
       -0.3053462 -0.22314262 0.01641229 -0.17889914
0000e0 ed a5 24 bb f1 33 fe 3c 4a 7f ac bc f4 dd c2 bd
       -0.0025123314 0.031030627 -0.02105679 -0.095149904
0000f0 b0 93 6c 3d e6 4f 5d be f7 ac 39 be 51 bc 2b be
       0.057758033 -0.2161251 -0.18132387 -0.16771056
000100 00 b4 23 3d 3a 8c 25 3e a9 c3 f1 3d ce aa 3c be
       0.039966583 0.16166773 0.11804897 -0.18424532
000110 e6 c4 7e 3e 7f 36 fc 3d 22 b4 a5 bd 2c 13 51 3e
       0.24879798 0.12315082 -0.08090998 0.2041747
000120 8b 42 56 bd 51 7c 5c 3e 75 06 35 be 25 e9 58 3e
       -0.052309554 0.21531798 -0.17678244 0.21182688
000130 c4 23 a6 bd 36 2a 82 bc aa 3e 0b 3e 9a 80 be bd
       -0.081122905 -0.015889268 0.13598123 -0.093018726
000140 e3 be 20 bd 18 f4 9f bd 4a d0 16 bc d6 7f 2a bb
       -0.039244544 -0.07810229 -0.009204933 -0.0026016138
000150 79 b2 0e be f9 77 08 be d7 c8 cf 3d b2 a1 b2 bd
       -0.1393527 -0.13327016 0.10145729 -0.08722247
000160 d7 f2 c4 bb 1a 39 a4 3d d6 ad 7d bd 73 ff 7c bc
       -0.006010394 0.08018704 -0.06193336 -0.015441763
000170 ce 2a 83 3e 0d 70 04 3e 71 2f 22 3e e5 6e b3 bd
       0.25618595 0.12933369 0.1583841 -0.08761386

rnn.bias_hh_l0 f4 [96]
000000 d4 6c 1f 3e 57 0d 01 3e 23 7b 3c 3e 61 42 93 bc
       0.15568858 0.12602745 0.18406348 -0.017975988
000010 be 46 bd 3d 50 54 61 3e 66 a8 e9 3d c1 84 c2 3d
       0.092420086 0.22004819 0.114090726 0.09497977
000020 66 1f a6 bc a6 b6 9f 3e 71 57 f1 bd 9d c0 d1 bd
       -0.020278644 0.31194037 -0.11784256 -0.10241816
000030 bc d7 9f bd af 12 02 be 84 15 67 bd 19 29 5d 3d
       -0.0780482 -0.1270244 -0.056417003 0.053994272
000040 ae 0a a6 bc ea c6 6e bb 1d 38 0c 3e d3 d8 9f 3c
       -0.020268764 -0.003643448 0.1369328 0.01951257
000050 bd 41 6b 3e b2 7c 10 3d be 69 81 bd d4 ca 59 3e
       0.22974296 0.03527517 -0.06318997 0.21268779
000060 ea 6e 13 3c 14 f0 24 bd e2 a8 53 bd ba ce d9 3d
       0.008998612 -0.04026802 -0.05167473 0.10635133
000070 ca 00 bf 3d a7 89 f3 3d dd f7 21 bc c4 2d a0 3d
       0.093263224 0.118914895 -0.009885755 0.07821229
000080 3d b8 bc be 59 f2 1e be 29 c1 d9 be b1 29 b9 be
       -0.36859313 -0.15522136 -0.42530182 -0.3616462
000090 ba 78 2c be d7 1d ac bd 54 8f 67 be 14 5e 12 3d
       -0.16842929 -0.08404129 -0.22613269 0.03573425
0000a0 9f 66 79 be 82 39 fa be d7 02 18 be e9 a9 a0 be
       -0.24355553 -0.48872 -0.14844833 -0.3137963
0000b0 8b 42 d5 be 94 5b b6 be fe 24 70 3c 03 93 58 be
       -0.4165233 -0.35616744 0.014657257 -0.2114983
0000c0 29 af 93 be a0 ca b2 be 34 0c 0c be 1a 44 28 bd
       -0.28844574 -0.34920216 -0.1367653 -0.04108057
0000d0 c2 cf 09 be ef c6 b0 be 9b 64 05 be 71 d4 ad 3d
       -0.1345816 -0.34526774 -0.13026659 0.084877856
0000e0 21 e3 f2 bc 14 5d 79 be 57 d3 63 bc fa 4d ca be
       -0.02964932 -0.24351913 -0.013905368 -0.39512616
0000f0 95 1d 41 be 03 29 94 bd 85 f1 49 be 88 5a 2f be
       -0.18858941 -0.07234385 -0.19721039 -0.17124379
000100 dc 6c 09 be 61 ae a2 3e f2 de 85 3e 43 83 95 be
       -0.13420433 0.31773666 0.26146656 -0.29201707
000110 1a 60 f2 3d 6c e2 a6 3d 59 4c b2 bd d3 54 1d 3e
       0.11834736 0.08148655 -0.087059684 0.15364389
000120 53 22 78 3d 02 82 bf bd f8 e6 52 3e c4 5f d3 3d
       0.06057961 -0.09350969 0.2059592 0.10321
000130 39 f0 67 3e ce 57 2d 3e d6 75 85 bd 2a c7 54 be
       0.22650231 0.16928026 -0.06516616 -0.207791
000140 a6 34 92 be b7 40 b8 3d f1 a2 01 be eb 13 3f 3e
       -0.28555793 0.089967184 -0.12659813 0.18659942
000150 35 c5 01 be 28 8d 53 be e0 0f e5 3d 7b 84 1a 3e
       -0.12672885 -0.20659316 0.111846685 0.150896
000160 db 2b 44 3e e2 c6 3e 3d e8 2a 6c 3e b0 ac 0a be
       0.19157355 0.04657639 0.23063242 -0.13542438
000170 31 e8 87 3e cc 77 8e 3e a9 39 4b 3e 79 26 4a 3d
       0.26544335 0.27825773 0.19846214 0.049353097

fc.weight f4 [88, 32]
000000 36 18 1f 3e b0 fe 8d be 45 18 a8 be c5 6f 1d 3e
       0.1553658 -0.27733374 -0.32831016 0.15374668
000010 06 c3 80 be be 7a 02 3e d2 ec 67 3e 39 28 d0 be
       -0.2514879 0.12742135 0.22648934 -0.40655687
000020 83 b0 52 be c6 d3 b0 be 6b 8b ac be 02 4e 87 3c
       -0.20575146 -0.3453657 -0.33700117 0.01651669
000030 53 0a 8d be fa ef 5e be 10 24 6c be ee 28 84 3e
       -0.2754694 -0.21771231 -0.23060632 0.25812477
000040 d1 b0 5e 3e 30 18 9d 3d 4a 53 6d 3e 2c 81 ac bd
       0.21747138 0.07670629 0.23176304 -0.08423075
000050 67 21 50 3e cc cd 9e 3a 1c c9 9c be ca ff 9a be
       0.20325242 0.0012115776 -0.30622184 -0.30273277
000060 e2 61 58 be 90 3d 3d be 2e b1 0c be 37 4a d4 3e
       -0.2113109 -0.18480515 -0.13739464 0.4146287
000070 8e 66 d5 be c4 9a b6 be 93 6d 32 be 3e f0 0c 3e
       -0.41679806 -0.35664952 -0.17424612 0.1376352
000080 87 de 1c 3e a3 97 31 be 33 b0 ad be de 64 4d 3e
       0.15319262 -0.17343001 -0.33923492 0.20058009
000090 00 c4 bb be d2 57 f1 3d 0f cf bb 3e 7e f7 d6 be
       -0.36672974 0.117843285 0.3668141 -0.41985697
0000a0 4d b9 3b be f5 2a a3 be 05 76 c0 be 3e e6 24 3e
       -0.18332405 -0.3186871 -0.37590042 0.16103455
0000b0 80 26 10 be 3d 2c ce bd 5c c6 55 be 28 ac 1c 3e
       -0.14077187 -0.100670315 -0.2087645 0.15300047
0000c0 ef 59 25 3e 59 78 db 3c 34 cd 82 3e 65 01 a6 be
       0.16147588 0.026790785 0.25547183 -0.3242294
0000d0 13 7e a4 3e a9 71 b6 3d cf 56 50 be e2 ae c0 be
       0.32127437 0.08908398 -0.20345615 -0.37633425
0000e0 73 bc 0c be 7d ac bf be 03 0c 90 be fb 62 e3 3e
       -0.13743763 -0.37436286 -0.28134164 0.44411454
0000f0 5a 12 9f be a8 e8 f6 be 2c 58 38 be ed 34 44 3e
       -0.3106869 -0.48224378 -0.18002385 0.19160815
000100 23 e1 28 3e 08 0e 89 be 7d 96 bb be 70 dc 57 3e
       0.16492133 -0.26768517 -0.3663825 0.21080184
000110 ed f6 ae be 2e ce 06 3e 91 72 07 3f 9d df fc be
       -0.34172764 0.13164589 0.5290919 -0.49389353
000120 f8 1c cc bd a7 13 5a be 20 f9 ac be 56 fb 17 3e
       -0.09966463 -0.2129656 -0.33783817 0.14841971
000130 bf b5 8f be f0 16 0e be 23 3e 4a be 33 80 6b 3e
       -0.2806835 -0.13875937 -0.19750266 0.22998123
000140 88 55 78 3e 19 ea 9e 3d be c5 38 3e a5 e5 26 be
       0.24251378 0.07759494 0.18044183 -0.1629854
000150 c0 62 6b 3e 20 46 33 3d ca 5f 22 be 75 3e d1 be
       0.22986889 0.04376805 -0.15856853 -0.40867963
000160 0f b9 79 be 42 22 d5 be 53 fc b4 be b6 eb 97 3e
       -0.24387 -0.416277 -0.35348758 0.2967202
000170 4e 69 39 be 2a be 79 be 5f 69 ae be d5 3d 84 3e
       -0.18106577 -0.24388948 -0.34064767 0.25828424
000180 f4 d2 a5 be e5 22 3c 3e 0b a8 35 3e 61 0a 5c be
       -0.32387507 0.18372686 0.17739885 -0.21488334
000190 b7 ee f5 be 2e e1 bd 3e 58 31 2a be 95 81 34 3e
       -0.48033687 0.3708586 -0.16620386 0.17627557
0001a0 68 c0 82 3e d9 50 25 3e f3 0a f1 3c bd 98 4a be
       0.2553742 0.16144122 0.029424166 -0.19784828
0001b0 a5 87 c7 3e d6 09 5f be 0a c9 7a 3e 3d 34 43 be
       0.38970676 -0.21781096 0.24490753 -0.19062896
0001c0 d0 f1 6e be c5 f1 bd 3e b9 16 90 be e7 92 67 3e
       -0.23334432 0.37098518 -0.28142336 0.22614633
0001d0 dc fa 6e be e2 61 84 be 62 e4 c2 be 13 91 f5 be
       -0.23337883 -0.2585593 -0.38064867 -0.47962245
0001e0 8c c8 57 3e d7 73 7d 3e 5f 3d ad be d6 03 4d be
       0.21072596 0.2475122 -0.33835885 -0.20020995
0001f0 21 33 56 3e 5f 41 3f 3e 5c 50 52 3e 22 20 6a be
       0.20917942 0.18677281 0.20538467 -0.2286382
000200 56 ff 1a be 7e 0e 99 3d 18 09 bc be 3c 67 96 3e
       -0.15136465 0.07473467 -0.36725688 0.29375637
000210 6a c9 04 3e 82 11 8f be f4 48 5d 3d f7 4b ec bd
       0.12967458 -0.27943045 0.05402465 -0.11537927
000220 61 65 a1 be 2a 3a ab be 41 20 ae 3d 7e f9 78 3e
       -0.31522658 -0.33442813 0.08502246 0.24313924
000230 52 01 31 3e 13 dc 1b 3e d7 7e 89 be ab c9 a6 3e
       0.1728566 0.1522067 -0.26854584 0.32575735
000240 2d 33 bb 3e 79 64 8c 3e 53 fe 13 3d 68 85 28 3d
       0.36562482 0.27420405 0.036131214 0.04114285
000250 40 6e a7 3e 68 b3 9a 3e e7 e6 2a 3e 3e 9c fa 3d
       0.32701302 0.30215 0.16689645 0.12236832
000260 57 f3 b4 be 08 90 90 bd cb cc 18 3d b5 c5 ce 3e
       -0.35341904 -0.07058722 0.03730468 0.40385213
000270 e7 72 61 bd f3 f4 3f 3c 1f 96 bb be 3e 43 96 3e
       -0.05504122 0.011716115 -0.3663797 0.29348177
000280 b9 5d b5 3e b9 67 8b 3e 5f 53 59 3e b9 82 61 be
       0.35423067 0.27227572 0.2122321 -0.22022523
000290 e2 84 37 3e 2c 02 da 3e bb f9 02 be b9 7d 16 3e
       0.17921785 0.42579782 -0.12790577 0.14696397
0002a0 ed 8f 44 3e 2b bb 3b 3e 3f 9a c1 be 65 da 6e 3e
       0.19195528 0.18333118 -0.37812993 0.23325498
0002b0 1b 39 5b 3d 19 c1 53 be 57 06 40 3d 15 b6 30 be
       0.053521257 -0.2067913 0.046881046 -0.17256959
0002c0 a2 0d 5c be d0 0b e4 bd 5e 3d 16 be 98 50 69 3e
       -0.21489576 -0.111350656 -0.14671847 0.2278465
0002d0 fe 50 5c be 0d a2 a8 be fc f4 e3 3d 05 cf 32 3e
       -0.21515271 -0.32936135 0.111307114 0.17461784
0002e0 c0 2a 43 3e 2c 40 63 3e cb 1a 13 3e 07 f0 38 be
       0.19059277 0.22192448 0.1436569 -0.18060313
0002f0 dd 0c 45 3e 06 e4 27 3e ce 30 5c 3e d2 67 8e bd
       0.19243188 0.16395578 0.21502993 -0.06953396
000300 ae fa d7 bd e1 63 e9 3c 33 f4 30 3e c9 6f 27 be
       -0.1054586 0.028490009 0.17280655 -0.16351236
000310 1c f6 71 3e 02 57 dc bd 0e 81 01 be d9 4e e8 3d
       0.2362904 -0.10758783 -0.12646887 0.11343164
000320 9c bf 87 3d a2 f7 52 3d 71 0f a9 3e c0 fb 40 be
       0.066283435 0.051505692 0.33019593 -0.18846035
000330 1c 41 03 3e 09 3c 76 be 16 c2 3c 3e a1 44 e2 bd
       0.12817806 -0.24046339 0.18433413 -0.11048246
000340 5f 94 39 be 4b e4 9b be a4 9b 60 be 17 d8 5c 3d
       -0.18123005 -0.3044761 -0.21934372 0.053917017
000350 96 0a 4e be a6 f2 10 be 26 19 67 bd 89 9d 33 3e
       -0.20121226 -0.14155063 -0.056420468 0.17540564
000360 b9 39 3e 3e 13 d6 e2 3d 55 e3 d9 bc 53 46 26 be
       0.18576707 0.11075988 -0.026597658 -0.16237764
000370 18 1c 2b 3e cc 84 17 3e 4b 86 17 3e 9e 0f 48 be
       0.16709936 0.14796752 0.14797322 -0.19537207
000380 01 aa bc 3e 0f c9 80 3e 29 f1 48 3e c4 99 59 be
       0.36848453 0.25153396 0.19623245 -0.21250063
000390 51 25 89 3e c1 78 8b 3e 01 16 15 be ff d2 17 3e
       0.26786283 0.27240565 -0.14559175 0.14826582
0003a0 e8 02 60 3e 80 ee 5d 3e 7a 1e aa be 44 3f ae 3e
       0.21876109 0.21673012 -0.33226377 0.34032643
0003b0 93 10 26 bd 01 ab 1a be e0 91 3d bc ad 44 72 be
       -0.04054315 -0.15104295 -0.011570424 -0.2365901
0003c0 77 14 5c be 2f 06 28 3e f5 63 84 be 1f 9d 33 3e
       -0.21492182 0.16408609 -0.2585751 0.17540406
0003d0 fe c3 56 be db 34 ac be a7 7f 30 3e f6 5c 8a 3e
       -0.20973203 -0.33634076 0.17236196 0.2702405
0003e0 7c 00 47 3e 25 ea ea 3d 0b 2d 49 3e 20 11 3a be
       0.19433779 0.11470441 0.19646089 -0.18170595
0003f0 75 29 44 3e b0 f2 25 3e 84 69 5b 3e 56 e2 cb bd
       0.1915644 0.16205859 0.2142697 -0.099552795

fc.bias f4 [88]
000000 89 3a c2 be fd 3e 9a be 64 a4 88 be 1b 3d a2 3e
       -0.37935284 -0.3012618 -0.2668792 0.31687245
000010 01 34 26 be 1b bb 33 3e ca ec 85 3d ca af cd 3e
       -0.16230775 0.17551844 0.065393046 0.4017318
000020 cb 5f 1a 3d 58 1c 9e bd 61 82 07 bd c1 fc 06 bc
       0.03768901 -0.0772025 -0.033083323 -0.008238972
000030 8c d9 af bc b7 4f 8c be 4d 5b 38 3c ed 8f dd 3d
       -0.02146604 -0.27404568 0.011252237 0.10818467
000040 02 3b cf bd 14 59 a3 3d 9a 00 83 3e c7 34 1a be
       -0.10118677 0.07975975 0.25586396 -0.15059195
000050 27 02 28 be e9 c6 45 be b2 85 95 bd bb 29 7b 3e
       -0.16407071 -0.1931416 -0.07300891 0.24527638
000060 bd 13 36 be 94 48 4d 3e 58 53 a3 bd 35 29 af 3e
       -0.17780967 0.20047218 -0.07974881 0.34211126
000070 22 10 fa bd c9 ac 6b 3c 37 fa f9 3d 7a 88 d2 3d
       -0.12210108 0.014384457 0.12205928 0.10279937
000080 41 c3 fb 3d 9c 41 29 be b4 f7 f2 bd 72 6a 8e be
       0.12293101 -0.16528934 -0.11863652 -0.27815586
000090 88 71 e7 bd 79 48 fb bc 87 e5 87 be d5 79 41 be
       -0.11300951 -0.030674206 -0.26542303 -0.18894131
0000a0 19 5b 75 be d4 73 6a be f4 d4 70 bd 5c 5e 73 bc
       -0.23960532 -0.22895747 -0.058796838 -0.01485404
0000b0 30 38 81 bd 00 14 a3 be 3b a7 a2 bd 11 c5 63 be
       -0.06309545 -0.31851196 -0.07942053 -0.22243144
0000c0 8f ad da bc c4 91 77 be 67 d9 32 be 7e ff 9a be
       -0.026694087 -0.24176699 -0.17465745 -0.3027305
0000d0 e4 98 ac be 2f 55 df bd dc 5a 98 be 44 65 65 be
       -0.33710396 -0.10904919 -0.2975682 -0.22401911
0000e0 67 97 93 be 44 4d 99 bd 01 d6 fc bd 50 ef ae be
       -0.28826448 -0.074854404 -0.123455055 -0.34166956
0000f0 06 b5 29 be 4a d2 88 be 81 58 5f bd 1a 5b 39 be
       -0.16572961 -0.26722938 -0.054527763 -0.18101159
000100 75 02 59 be 9a 14 72 be 09 ad 2c be 7c 07 2d be
       -0.21192344 -0.23640671 -0.16862883 -0.16897386
000110 63 1e 6e bd 49 39 52 bd 14 79 ba be df 6b 9f bd
       -0.058134448 -0.051324163 -0.364205 -0.07784247
000120 32 44 7a be f8 da 50 be 6b b5 89 be e0 6e 7b bd
       -0.24440077 -0.2039603 -0.26896223 -0.061385036
000130 ee 25 81 be 0f ad 65 bd 4a e1 8d be eb e2 c3 be
       -0.2522425 -0.056073245 -0.27710944 -0.38259062
000140 a8 55 98 be bd 59 a8 be 3c d0 56 be a4 b8 ad be
       -0.2975285 -0.32880965 -0.20977873 -0.33929932
000150 1f 7d 59 bd ba a7 0b be 20 c4 62 be 91 7f 8e be
       -0.05309784 -0.13638201 -0.22145128 -0.278317
